{"format": "graph-model", "generatedBy": "2.3.0", "convertedBy": "TensorFlow.js Converter v2.4.0", "userDefinedMetadata": {"signature": {"inputs": {"data:0": {"name": "data:0", "dtype": "DT_FLOAT", "tensorShape": {"dim": [{"size": "-1"}, {"size": "260"}, {"size": "260"}, {"size": "3"}]}}}, "outputs": {"Identity_1:0": {"name": "Identity_1:0", "dtype": "DT_FLOAT", "tensorShape": {"dim": [{"size": "-1"}, {"size": "5972"}, {"size": "4"}]}}, "Identity:0": {"name": "Identity:0", "dtype": "DT_FLOAT", "tensorShape": {"dim": [{"size": "-1"}, {"size": "5972"}, {"size": "2"}]}}}}}, "modelTopology": {"node": [{"name": "unknown_97", "op": "Const", "attr": {"value": {"tensor": {"dtype": "DT_FLOAT", "tensorShape": {"dim": [{"size": "3"}, {"size": "3"}, {"size": "64"}, {"size": "8"}]}}}, "dtype": {"type": "DT_FLOAT"}}}, {"name": "unknown_98", "op": "Const", "attr": {"value": {"tensor": {"dtype": "DT_FLOAT", "tensorShape": {"dim": [{"size": "8"}]}}}, "dtype": {"type": "DT_FLOAT"}}}, {"name": "StatefulPartitionedCall/model_2/cls_0_reshape/strided_slice/stack", "op": "Const", "attr": {"value": {"tensor": {"dtype": "DT_INT32", "tensorShape": {"dim": [{"size": "1"}]}}}, "dtype": {"type": "DT_INT32"}}}, {"name": "StatefulPartitionedCall/model_2/cls_0_reshape/strided_slice/stack_1", "op": "Const", "attr": {"dtype": {"type": "DT_INT32"}, "value": {"tensor": {"dtype": "DT_INT32", "tensorShape": {"dim": [{"size": "1"}]}}}}}, {"name": "StatefulPartitionedCall/model_2/cls_0_reshape/strided_slice/stack_2", "op": "Const", "attr": {"dtype": {"type": "DT_INT32"}, "value": {"tensor": {"dtype": "DT_INT32", "tensorShape": {"dim": [{"size": "1"}]}}}}}, {"name": "StatefulPartitionedCall/model_2/cls_0_reshape/Reshape/shape/1", "op": "Const", "attr": {"dtype": {"type": "DT_INT32"}, "value": {"tensor": {"dtype": "DT_INT32", "tensorShape": {}}}}}, {"name": "StatefulPartitionedCall/model_2/cls_0_reshape/Reshape/shape/2", "op": "Const", "attr": {"dtype": {"type": "DT_INT32"}, "value": {"tensor": {"dtype": "DT_INT32", "tensorShape": {}}}}}, {"name": "unknown_95", "op": "Const", "attr": {"dtype": {"type": "DT_FLOAT"}, "value": {"tensor": {"dtype": "DT_FLOAT", "tensorShape": {"dim": [{"size": "3"}, {"size": "3"}, {"size": "64"}, {"size": "8"}]}}}}}, {"name": "unknown_96", "op": "Const", "attr": {"dtype": {"type": "DT_FLOAT"}, "value": {"tensor": {"dtype": "DT_FLOAT", "tensorShape": {"dim": [{"size": "8"}]}}}}}, {"name": "StatefulPartitionedCall/model_2/cls_1_reshape/strided_slice/stack", "op": "Const", "attr": {"dtype": {"type": "DT_INT32"}, "value": {"tensor": {"dtype": "DT_INT32", "tensorShape": {"dim": [{"size": "1"}]}}}}}, {"name": "StatefulPartitionedCall/model_2/cls_1_reshape/strided_slice/stack_1", "op": "Const", "attr": {"value": {"tensor": {"dtype": "DT_INT32", "tensorShape": {"dim": [{"size": "1"}]}}}, "dtype": {"type": "DT_INT32"}}}, {"name": "StatefulPartitionedCall/model_2/cls_1_reshape/strided_slice/stack_2", "op": "Const", "attr": {"dtype": {"type": "DT_INT32"}, "value": {"tensor": {"dtype": "DT_INT32", "tensorShape": {"dim": [{"size": "1"}]}}}}}, {"name": "StatefulPartitionedCall/model_2/cls_1_reshape/Reshape/shape/1", "op": "Const", "attr": {"dtype": {"type": "DT_INT32"}, "value": {"tensor": {"dtype": "DT_INT32", "tensorShape": {}}}}}, {"name": "StatefulPartitionedCall/model_2/cls_1_reshape/Reshape/shape/2", "op": "Const", "attr": {"dtype": {"type": "DT_INT32"}, "value": {"tensor": {"dtype": "DT_INT32", "tensorShape": {}}}}}, {"name": "unknown_93", "op": "Const", "attr": {"dtype": {"type": "DT_FLOAT"}, "value": {"tensor": {"dtype": "DT_FLOAT", "tensorShape": {"dim": [{"size": "3"}, {"size": "3"}, {"size": "64"}, {"size": "8"}]}}}}}, {"name": "unknown_94", "op": "Const", "attr": {"value": {"tensor": {"dtype": "DT_FLOAT", "tensorShape": {"dim": [{"size": "8"}]}}}, "dtype": {"type": "DT_FLOAT"}}}, {"name": "StatefulPartitionedCall/model_2/cls_2_reshape/strided_slice/stack", "op": "Const", "attr": {"value": {"tensor": {"dtype": "DT_INT32", "tensorShape": {"dim": [{"size": "1"}]}}}, "dtype": {"type": "DT_INT32"}}}, {"name": "StatefulPartitionedCall/model_2/cls_2_reshape/strided_slice/stack_1", "op": "Const", "attr": {"value": {"tensor": {"dtype": "DT_INT32", "tensorShape": {"dim": [{"size": "1"}]}}}, "dtype": {"type": "DT_INT32"}}}, {"name": "StatefulPartitionedCall/model_2/cls_2_reshape/strided_slice/stack_2", "op": "Const", "attr": {"value": {"tensor": {"dtype": "DT_INT32", "tensorShape": {"dim": [{"size": "1"}]}}}, "dtype": {"type": "DT_INT32"}}}, {"name": "StatefulPartitionedCall/model_2/cls_2_reshape/Reshape/shape/1", "op": "Const", "attr": {"dtype": {"type": "DT_INT32"}, "value": {"tensor": {"dtype": "DT_INT32", "tensorShape": {}}}}}, {"name": "StatefulPartitionedCall/model_2/cls_2_reshape/Reshape/shape/2", "op": "Const", "attr": {"dtype": {"type": "DT_INT32"}, "value": {"tensor": {"dtype": "DT_INT32", "tensorShape": {}}}}}, {"name": "unknown_91", "op": "Const", "attr": {"dtype": {"type": "DT_FLOAT"}, "value": {"tensor": {"dtype": "DT_FLOAT", "tensorShape": {"dim": [{"size": "3"}, {"size": "3"}, {"size": "64"}, {"size": "8"}]}}}}}, {"name": "unknown_92", "op": "Const", "attr": {"value": {"tensor": {"dtype": "DT_FLOAT", "tensorShape": {"dim": [{"size": "8"}]}}}, "dtype": {"type": "DT_FLOAT"}}}, {"name": "StatefulPartitionedCall/model_2/cls_3_reshape/strided_slice/stack", "op": "Const", "attr": {"dtype": {"type": "DT_INT32"}, "value": {"tensor": {"dtype": "DT_INT32", "tensorShape": {"dim": [{"size": "1"}]}}}}}, {"name": "StatefulPartitionedCall/model_2/cls_3_reshape/strided_slice/stack_1", "op": "Const", "attr": {"value": {"tensor": {"dtype": "DT_INT32", "tensorShape": {"dim": [{"size": "1"}]}}}, "dtype": {"type": "DT_INT32"}}}, {"name": "StatefulPartitionedCall/model_2/cls_3_reshape/strided_slice/stack_2", "op": "Const", "attr": {"value": {"tensor": {"dtype": "DT_INT32", "tensorShape": {"dim": [{"size": "1"}]}}}, "dtype": {"type": "DT_INT32"}}}, {"name": "StatefulPartitionedCall/model_2/cls_3_reshape/Reshape/shape/1", "op": "Const", "attr": {"dtype": {"type": "DT_INT32"}, "value": {"tensor": {"dtype": "DT_INT32", "tensorShape": {}}}}}, {"name": "StatefulPartitionedCall/model_2/cls_3_reshape/Reshape/shape/2", "op": "Const", "attr": {"value": {"tensor": {"dtype": "DT_INT32", "tensorShape": {}}}, "dtype": {"type": "DT_INT32"}}}, {"name": "unknown_89", "op": "Const", "attr": {"dtype": {"type": "DT_FLOAT"}, "value": {"tensor": {"dtype": "DT_FLOAT", "tensorShape": {"dim": [{"size": "3"}, {"size": "3"}, {"size": "64"}, {"size": "8"}]}}}}}, {"name": "unknown_90", "op": "Const", "attr": {"dtype": {"type": "DT_FLOAT"}, "value": {"tensor": {"dtype": "DT_FLOAT", "tensorShape": {"dim": [{"size": "8"}]}}}}}, {"name": "StatefulPartitionedCall/model_2/cls_4_reshape/strided_slice/stack", "op": "Const", "attr": {"dtype": {"type": "DT_INT32"}, "value": {"tensor": {"dtype": "DT_INT32", "tensorShape": {"dim": [{"size": "1"}]}}}}}, {"name": "StatefulPartitionedCall/model_2/cls_4_reshape/strided_slice/stack_1", "op": "Const", "attr": {"value": {"tensor": {"dtype": "DT_INT32", "tensorShape": {"dim": [{"size": "1"}]}}}, "dtype": {"type": "DT_INT32"}}}, {"name": "StatefulPartitionedCall/model_2/cls_4_reshape/strided_slice/stack_2", "op": "Const", "attr": {"value": {"tensor": {"dtype": "DT_INT32", "tensorShape": {"dim": [{"size": "1"}]}}}, "dtype": {"type": "DT_INT32"}}}, {"name": "StatefulPartitionedCall/model_2/cls_4_reshape/Reshape/shape/1", "op": "Const", "attr": {"dtype": {"type": "DT_INT32"}, "value": {"tensor": {"dtype": "DT_INT32", "tensorShape": {}}}}}, {"name": "StatefulPartitionedCall/model_2/cls_4_reshape/Reshape/shape/2", "op": "Const", "attr": {"dtype": {"type": "DT_INT32"}, "value": {"tensor": {"dtype": "DT_INT32", "tensorShape": {}}}}}, {"name": "StatefulPartitionedCall/model_2/cls_branch_concat/concat/axis", "op": "Const", "attr": {"value": {"tensor": {"dtype": "DT_INT32", "tensorShape": {}}}, "dtype": {"type": "DT_INT32"}}}, {"name": "unknown_107", "op": "Const", "attr": {"value": {"tensor": {"dtype": "DT_FLOAT", "tensorShape": {"dim": [{"size": "3"}, {"size": "3"}, {"size": "64"}, {"size": "16"}]}}}, "dtype": {"type": "DT_FLOAT"}}}, {"name": "unknown_108", "op": "Const", "attr": {"value": {"tensor": {"dtype": "DT_FLOAT", "tensorShape": {"dim": [{"size": "16"}]}}}, "dtype": {"type": "DT_FLOAT"}}}, {"name": "StatefulPartitionedCall/model_2/loc_0_reshape/strided_slice/stack", "op": "Const", "attr": {"dtype": {"type": "DT_INT32"}, "value": {"tensor": {"dtype": "DT_INT32", "tensorShape": {"dim": [{"size": "1"}]}}}}}, {"name": "StatefulPartitionedCall/model_2/loc_0_reshape/strided_slice/stack_1", "op": "Const", "attr": {"value": {"tensor": {"dtype": "DT_INT32", "tensorShape": {"dim": [{"size": "1"}]}}}, "dtype": {"type": "DT_INT32"}}}, {"name": "StatefulPartitionedCall/model_2/loc_0_reshape/strided_slice/stack_2", "op": "Const", "attr": {"value": {"tensor": {"dtype": "DT_INT32", "tensorShape": {"dim": [{"size": "1"}]}}}, "dtype": {"type": "DT_INT32"}}}, {"name": "StatefulPartitionedCall/model_2/loc_0_reshape/Reshape/shape/1", "op": "Const", "attr": {"dtype": {"type": "DT_INT32"}, "value": {"tensor": {"dtype": "DT_INT32", "tensorShape": {}}}}}, {"name": "StatefulPartitionedCall/model_2/loc_0_reshape/Reshape/shape/2", "op": "Const", "attr": {"dtype": {"type": "DT_INT32"}, "value": {"tensor": {"dtype": "DT_INT32", "tensorShape": {}}}}}, {"name": "unknown_105", "op": "Const", "attr": {"value": {"tensor": {"dtype": "DT_FLOAT", "tensorShape": {"dim": [{"size": "3"}, {"size": "3"}, {"size": "64"}, {"size": "16"}]}}}, "dtype": {"type": "DT_FLOAT"}}}, {"name": "unknown_106", "op": "Const", "attr": {"value": {"tensor": {"dtype": "DT_FLOAT", "tensorShape": {"dim": [{"size": "16"}]}}}, "dtype": {"type": "DT_FLOAT"}}}, {"name": "StatefulPartitionedCall/model_2/loc_1_reshape/strided_slice/stack", "op": "Const", "attr": {"dtype": {"type": "DT_INT32"}, "value": {"tensor": {"dtype": "DT_INT32", "tensorShape": {"dim": [{"size": "1"}]}}}}}, {"name": "StatefulPartitionedCall/model_2/loc_1_reshape/strided_slice/stack_1", "op": "Const", "attr": {"dtype": {"type": "DT_INT32"}, "value": {"tensor": {"dtype": "DT_INT32", "tensorShape": {"dim": [{"size": "1"}]}}}}}, {"name": "StatefulPartitionedCall/model_2/loc_1_reshape/strided_slice/stack_2", "op": "Const", "attr": {"dtype": {"type": "DT_INT32"}, "value": {"tensor": {"dtype": "DT_INT32", "tensorShape": {"dim": [{"size": "1"}]}}}}}, {"name": "StatefulPartitionedCall/model_2/loc_1_reshape/Reshape/shape/1", "op": "Const", "attr": {"dtype": {"type": "DT_INT32"}, "value": {"tensor": {"dtype": "DT_INT32", "tensorShape": {}}}}}, {"name": "StatefulPartitionedCall/model_2/loc_1_reshape/Reshape/shape/2", "op": "Const", "attr": {"value": {"tensor": {"dtype": "DT_INT32", "tensorShape": {}}}, "dtype": {"type": "DT_INT32"}}}, {"name": "unknown_103", "op": "Const", "attr": {"value": {"tensor": {"dtype": "DT_FLOAT", "tensorShape": {"dim": [{"size": "3"}, {"size": "3"}, {"size": "64"}, {"size": "16"}]}}}, "dtype": {"type": "DT_FLOAT"}}}, {"name": "unknown_104", "op": "Const", "attr": {"dtype": {"type": "DT_FLOAT"}, "value": {"tensor": {"dtype": "DT_FLOAT", "tensorShape": {"dim": [{"size": "16"}]}}}}}, {"name": "StatefulPartitionedCall/model_2/loc_2_reshape/strided_slice/stack", "op": "Const", "attr": {"dtype": {"type": "DT_INT32"}, "value": {"tensor": {"dtype": "DT_INT32", "tensorShape": {"dim": [{"size": "1"}]}}}}}, {"name": "StatefulPartitionedCall/model_2/loc_2_reshape/strided_slice/stack_1", "op": "Const", "attr": {"dtype": {"type": "DT_INT32"}, "value": {"tensor": {"dtype": "DT_INT32", "tensorShape": {"dim": [{"size": "1"}]}}}}}, {"name": "StatefulPartitionedCall/model_2/loc_2_reshape/strided_slice/stack_2", "op": "Const", "attr": {"dtype": {"type": "DT_INT32"}, "value": {"tensor": {"dtype": "DT_INT32", "tensorShape": {"dim": [{"size": "1"}]}}}}}, {"name": "StatefulPartitionedCall/model_2/loc_2_reshape/Reshape/shape/1", "op": "Const", "attr": {"value": {"tensor": {"dtype": "DT_INT32", "tensorShape": {}}}, "dtype": {"type": "DT_INT32"}}}, {"name": "StatefulPartitionedCall/model_2/loc_2_reshape/Reshape/shape/2", "op": "Const", "attr": {"dtype": {"type": "DT_INT32"}, "value": {"tensor": {"dtype": "DT_INT32", "tensorShape": {}}}}}, {"name": "unknown_101", "op": "Const", "attr": {"dtype": {"type": "DT_FLOAT"}, "value": {"tensor": {"dtype": "DT_FLOAT", "tensorShape": {"dim": [{"size": "3"}, {"size": "3"}, {"size": "64"}, {"size": "16"}]}}}}}, {"name": "unknown_102", "op": "Const", "attr": {"value": {"tensor": {"dtype": "DT_FLOAT", "tensorShape": {"dim": [{"size": "16"}]}}}, "dtype": {"type": "DT_FLOAT"}}}, {"name": "StatefulPartitionedCall/model_2/loc_3_reshape/strided_slice/stack", "op": "Const", "attr": {"value": {"tensor": {"dtype": "DT_INT32", "tensorShape": {"dim": [{"size": "1"}]}}}, "dtype": {"type": "DT_INT32"}}}, {"name": "StatefulPartitionedCall/model_2/loc_3_reshape/strided_slice/stack_1", "op": "Const", "attr": {"dtype": {"type": "DT_INT32"}, "value": {"tensor": {"dtype": "DT_INT32", "tensorShape": {"dim": [{"size": "1"}]}}}}}, {"name": "StatefulPartitionedCall/model_2/loc_3_reshape/strided_slice/stack_2", "op": "Const", "attr": {"dtype": {"type": "DT_INT32"}, "value": {"tensor": {"dtype": "DT_INT32", "tensorShape": {"dim": [{"size": "1"}]}}}}}, {"name": "StatefulPartitionedCall/model_2/loc_3_reshape/Reshape/shape/1", "op": "Const", "attr": {"dtype": {"type": "DT_INT32"}, "value": {"tensor": {"dtype": "DT_INT32", "tensorShape": {}}}}}, {"name": "StatefulPartitionedCall/model_2/loc_3_reshape/Reshape/shape/2", "op": "Const", "attr": {"dtype": {"type": "DT_INT32"}, "value": {"tensor": {"dtype": "DT_INT32", "tensorShape": {}}}}}, {"name": "unknown_99", "op": "Const", "attr": {"value": {"tensor": {"dtype": "DT_FLOAT", "tensorShape": {"dim": [{"size": "3"}, {"size": "3"}, {"size": "64"}, {"size": "16"}]}}}, "dtype": {"type": "DT_FLOAT"}}}, {"name": "unknown_100", "op": "Const", "attr": {"dtype": {"type": "DT_FLOAT"}, "value": {"tensor": {"dtype": "DT_FLOAT", "tensorShape": {"dim": [{"size": "16"}]}}}}}, {"name": "StatefulPartitionedCall/model_2/loc_4_reshape/strided_slice/stack", "op": "Const", "attr": {"dtype": {"type": "DT_INT32"}, "value": {"tensor": {"dtype": "DT_INT32", "tensorShape": {"dim": [{"size": "1"}]}}}}}, {"name": "StatefulPartitionedCall/model_2/loc_4_reshape/strided_slice/stack_1", "op": "Const", "attr": {"value": {"tensor": {"dtype": "DT_INT32", "tensorShape": {"dim": [{"size": "1"}]}}}, "dtype": {"type": "DT_INT32"}}}, {"name": "StatefulPartitionedCall/model_2/loc_4_reshape/strided_slice/stack_2", "op": "Const", "attr": {"dtype": {"type": "DT_INT32"}, "value": {"tensor": {"dtype": "DT_INT32", "tensorShape": {"dim": [{"size": "1"}]}}}}}, {"name": "StatefulPartitionedCall/model_2/loc_4_reshape/Reshape/shape/1", "op": "Const", "attr": {"value": {"tensor": {"dtype": "DT_INT32", "tensorShape": {}}}, "dtype": {"type": "DT_INT32"}}}, {"name": "StatefulPartitionedCall/model_2/loc_4_reshape/Reshape/shape/2", "op": "Const", "attr": {"value": {"tensor": {"dtype": "DT_INT32", "tensorShape": {}}}, "dtype": {"type": "DT_INT32"}}}, {"name": "StatefulPartitionedCall/model_2/loc_branch_concat/concat/axis", "op": "Const", "attr": {"value": {"tensor": {"dtype": "DT_INT32", "tensorShape": {}}}, "dtype": {"type": "DT_INT32"}}}, {"name": "data", "op": "Placeholder", "attr": {"shape": {"shape": {"dim": [{"size": "-1"}, {"size": "260"}, {"size": "260"}, {"size": "3"}]}}, "dtype": {"type": "DT_FLOAT"}}}, {"name": "StatefulPartitionedCall/model_2/conv2d_0/Conv2D_weights", "op": "Const", "attr": {"dtype": {"type": "DT_FLOAT"}, "value": {"tensor": {"dtype": "DT_FLOAT", "tensorShape": {"dim": [{"size": "3"}, {"size": "3"}, {"size": "3"}, {"size": "32"}]}}}}}, {"name": "StatefulPartitionedCall/model_2/conv2d_0/Conv2D_bn_offset", "op": "Const", "attr": {"dtype": {"type": "DT_FLOAT"}, "value": {"tensor": {"dtype": "DT_FLOAT", "tensorShape": {"dim": [{"size": "32"}]}}}}}, {"name": "StatefulPartitionedCall/model_2/conv2d_1/Conv2D_weights", "op": "Const", "attr": {"dtype": {"type": "DT_FLOAT"}, "value": {"tensor": {"dtype": "DT_FLOAT", "tensorShape": {"dim": [{"size": "3"}, {"size": "3"}, {"size": "32"}, {"size": "64"}]}}}}}, {"name": "StatefulPartitionedCall/model_2/conv2d_1/Conv2D_bn_offset", "op": "Const", "attr": {"value": {"tensor": {"dtype": "DT_FLOAT", "tensorShape": {"dim": [{"size": "64"}]}}}, "dtype": {"type": "DT_FLOAT"}}}, {"name": "StatefulPartitionedCall/model_2/loc_3_insert_conv2d/Conv2D_weights", "op": "Const", "attr": {"dtype": {"type": "DT_FLOAT"}, "value": {"tensor": {"dtype": "DT_FLOAT", "tensorShape": {"dim": [{"size": "3"}, {"size": "3"}, {"size": "64"}, {"size": "64"}]}}}}}, {"name": "StatefulPartitionedCall/model_2/conv2d_2/Conv2D_weights", "op": "Const", "attr": {"dtype": {"type": "DT_FLOAT"}, "value": {"tensor": {"dtype": "DT_FLOAT", "tensorShape": {"dim": [{"size": "3"}, {"size": "3"}, {"size": "64"}, {"size": "64"}]}}}}}, {"name": "StatefulPartitionedCall/model_2/loc_4_insert_conv2d/Conv2D_bn_offset", "op": "Const", "attr": {"value": {"tensor": {"dtype": "DT_FLOAT", "tensorShape": {"dim": [{"size": "64"}]}}}, "dtype": {"type": "DT_FLOAT"}}}, {"name": "StatefulPartitionedCall/model_2/conv2d_2/Conv2D_bn_offset", "op": "Const", "attr": {"dtype": {"type": "DT_FLOAT"}, "value": {"tensor": {"dtype": "DT_FLOAT", "tensorShape": {"dim": [{"size": "64"}]}}}}}, {"name": "StatefulPartitionedCall/model_2/loc_3_insert_conv2d/Conv2D_bn_offset", "op": "Const", "attr": {"value": {"tensor": {"dtype": "DT_FLOAT", "tensorShape": {"dim": [{"size": "64"}]}}}, "dtype": {"type": "DT_FLOAT"}}}, {"name": "StatefulPartitionedCall/model_2/conv2d_3/Conv2D_weights", "op": "Const", "attr": {"value": {"tensor": {"dtype": "DT_FLOAT", "tensorShape": {"dim": [{"size": "3"}, {"size": "3"}, {"size": "64"}, {"size": "64"}]}}}, "dtype": {"type": "DT_FLOAT"}}}, {"name": "StatefulPartitionedCall/model_2/conv2d_3/Conv2D_bn_offset", "op": "Const", "attr": {"value": {"tensor": {"dtype": "DT_FLOAT", "tensorShape": {"dim": [{"size": "64"}]}}}, "dtype": {"type": "DT_FLOAT"}}}, {"name": "StatefulPartitionedCall/model_2/cls_0_insert_conv2d/Conv2D_weights", "op": "Const", "attr": {"value": {"tensor": {"dtype": "DT_FLOAT", "tensorShape": {"dim": [{"size": "3"}, {"size": "3"}, {"size": "64"}, {"size": "64"}]}}}, "dtype": {"type": "DT_FLOAT"}}}, {"name": "StatefulPartitionedCall/model_2/cls_0_insert_conv2d/Conv2D_bn_offset", "op": "Const", "attr": {"dtype": {"type": "DT_FLOAT"}, "value": {"tensor": {"dtype": "DT_FLOAT", "tensorShape": {"dim": [{"size": "64"}]}}}}}, {"name": "StatefulPartitionedCall/model_2/loc_0_insert_conv2d/Conv2D_weights", "op": "Const", "attr": {"dtype": {"type": "DT_FLOAT"}, "value": {"tensor": {"dtype": "DT_FLOAT", "tensorShape": {"dim": [{"size": "3"}, {"size": "3"}, {"size": "64"}, {"size": "64"}]}}}}}, {"name": "StatefulPartitionedCall/model_2/loc_0_insert_conv2d/Conv2D_bn_offset", "op": "Const", "attr": {"dtype": {"type": "DT_FLOAT"}, "value": {"tensor": {"dtype": "DT_FLOAT", "tensorShape": {"dim": [{"size": "64"}]}}}}}, {"name": "StatefulPartitionedCall/model_2/conv2d_4/Conv2D_weights", "op": "Const", "attr": {"dtype": {"type": "DT_FLOAT"}, "value": {"tensor": {"dtype": "DT_FLOAT", "tensorShape": {"dim": [{"size": "3"}, {"size": "3"}, {"size": "64"}, {"size": "128"}]}}}}}, {"name": "StatefulPartitionedCall/model_2/conv2d_7/Conv2D_weights", "op": "Const", "attr": {"dtype": {"type": "DT_FLOAT"}, "value": {"tensor": {"dtype": "DT_FLOAT", "tensorShape": {"dim": [{"size": "3"}, {"size": "3"}, {"size": "64"}, {"size": "64"}]}}}}}, {"name": "StatefulPartitionedCall/model_2/conv2d_4/Conv2D_bn_offset", "op": "Const", "attr": {"dtype": {"type": "DT_FLOAT"}, "value": {"tensor": {"dtype": "DT_FLOAT", "tensorShape": {"dim": [{"size": "128"}]}}}}}, {"name": "StatefulPartitionedCall/model_2/cls_1_insert_conv2d/Conv2D_weights", "op": "Const", "attr": {"dtype": {"type": "DT_FLOAT"}, "value": {"tensor": {"dtype": "DT_FLOAT", "tensorShape": {"dim": [{"size": "3"}, {"size": "3"}, {"size": "128"}, {"size": "64"}]}}}}}, {"name": "StatefulPartitionedCall/model_2/conv2d_7/Conv2D_bn_offset", "op": "Const", "attr": {"dtype": {"type": "DT_FLOAT"}, "value": {"tensor": {"dtype": "DT_FLOAT", "tensorShape": {"dim": [{"size": "64"}]}}}}}, {"name": "StatefulPartitionedCall/model_2/cls_1_insert_conv2d/Conv2D_bn_offset", "op": "Const", "attr": {"value": {"tensor": {"dtype": "DT_FLOAT", "tensorShape": {"dim": [{"size": "64"}]}}}, "dtype": {"type": "DT_FLOAT"}}}, {"name": "StatefulPartitionedCall/model_2/loc_1_insert_conv2d/Conv2D_weights", "op": "Const", "attr": {"value": {"tensor": {"dtype": "DT_FLOAT", "tensorShape": {"dim": [{"size": "3"}, {"size": "3"}, {"size": "128"}, {"size": "64"}]}}}, "dtype": {"type": "DT_FLOAT"}}}, {"name": "StatefulPartitionedCall/model_2/cls_4_insert_conv2d/Conv2D_weights", "op": "Const", "attr": {"value": {"tensor": {"dtype": "DT_FLOAT", "tensorShape": {"dim": [{"size": "3"}, {"size": "3"}, {"size": "64"}, {"size": "64"}]}}}, "dtype": {"type": "DT_FLOAT"}}}, {"name": "StatefulPartitionedCall/model_2/loc_1_insert_conv2d/Conv2D_bn_offset", "op": "Const", "attr": {"dtype": {"type": "DT_FLOAT"}, "value": {"tensor": {"dtype": "DT_FLOAT", "tensorShape": {"dim": [{"size": "64"}]}}}}}, {"name": "StatefulPartitionedCall/model_2/cls_4_insert_conv2d/Conv2D_bn_offset", "op": "Const", "attr": {"value": {"tensor": {"dtype": "DT_FLOAT", "tensorShape": {"dim": [{"size": "64"}]}}}, "dtype": {"type": "DT_FLOAT"}}}, {"name": "StatefulPartitionedCall/model_2/conv2d_5/Conv2D_weights", "op": "Const", "attr": {"value": {"tensor": {"dtype": "DT_FLOAT", "tensorShape": {"dim": [{"size": "3"}, {"size": "3"}, {"size": "128"}, {"size": "128"}]}}}, "dtype": {"type": "DT_FLOAT"}}}, {"name": "StatefulPartitionedCall/model_2/conv2d_5/Conv2D_bn_offset", "op": "Const", "attr": {"dtype": {"type": "DT_FLOAT"}, "value": {"tensor": {"dtype": "DT_FLOAT", "tensorShape": {"dim": [{"size": "128"}]}}}}}, {"name": "StatefulPartitionedCall/model_2/cls_2_insert_conv2d/Conv2D_weights", "op": "Const", "attr": {"dtype": {"type": "DT_FLOAT"}, "value": {"tensor": {"dtype": "DT_FLOAT", "tensorShape": {"dim": [{"size": "3"}, {"size": "3"}, {"size": "128"}, {"size": "64"}]}}}}}, {"name": "StatefulPartitionedCall/model_2/cls_2_insert_conv2d/Conv2D_bn_offset", "op": "Const", "attr": {"dtype": {"type": "DT_FLOAT"}, "value": {"tensor": {"dtype": "DT_FLOAT", "tensorShape": {"dim": [{"size": "64"}]}}}}}, {"name": "StatefulPartitionedCall/model_2/loc_2_insert_conv2d/Conv2D_weights", "op": "Const", "attr": {"dtype": {"type": "DT_FLOAT"}, "value": {"tensor": {"dtype": "DT_FLOAT", "tensorShape": {"dim": [{"size": "3"}, {"size": "3"}, {"size": "128"}, {"size": "64"}]}}}}}, {"name": "StatefulPartitionedCall/model_2/loc_2_insert_conv2d/Conv2D_bn_offset", "op": "Const", "attr": {"dtype": {"type": "DT_FLOAT"}, "value": {"tensor": {"dtype": "DT_FLOAT", "tensorShape": {"dim": [{"size": "64"}]}}}}}, {"name": "StatefulPartitionedCall/model_2/conv2d_6/Conv2D_weights", "op": "Const", "attr": {"dtype": {"type": "DT_FLOAT"}, "value": {"tensor": {"dtype": "DT_FLOAT", "tensorShape": {"dim": [{"size": "3"}, {"size": "3"}, {"size": "128"}, {"size": "64"}]}}}}}, {"name": "StatefulPartitionedCall/model_2/conv2d_6/Conv2D_bn_offset", "op": "Const", "attr": {"dtype": {"type": "DT_FLOAT"}, "value": {"tensor": {"dtype": "DT_FLOAT", "tensorShape": {"dim": [{"size": "64"}]}}}}}, {"name": "StatefulPartitionedCall/model_2/cls_3_insert_conv2d/Conv2D_weights", "op": "Const", "attr": {"dtype": {"type": "DT_FLOAT"}, "value": {"tensor": {"dtype": "DT_FLOAT", "tensorShape": {"dim": [{"size": "3"}, {"size": "3"}, {"size": "64"}, {"size": "64"}]}}}}}, {"name": "StatefulPartitionedCall/model_2/cls_3_insert_conv2d/Conv2D_bn_offset", "op": "Const", "attr": {"dtype": {"type": "DT_FLOAT"}, "value": {"tensor": {"dtype": "DT_FLOAT", "tensorShape": {"dim": [{"size": "64"}]}}}}}, {"name": "StatefulPartitionedCall/model_2/loc_4_insert_conv2d/Conv2D_weights", "op": "Const", "attr": {"dtype": {"type": "DT_FLOAT"}, "value": {"tensor": {"dtype": "DT_FLOAT", "tensorShape": {"dim": [{"size": "3"}, {"size": "3"}, {"size": "64"}, {"size": "64"}]}}}}}, {"name": "StatefulPartitionedCall/model_2/conv2d_0_activation/Relu", "op": "_FusedConv2D", "input": ["data", "StatefulPartitionedCall/model_2/conv2d_0/Conv2D_weights", "StatefulPartitionedCall/model_2/conv2d_0/Conv2D_bn_offset"], "device": "/device:CPU:0", "attr": {"num_args": {"i": "1"}, "data_format": {"s": "TkhXQw=="}, "use_cudnn_on_gpu": {"b": true}, "dilations": {"list": {"i": ["1", "1", "1", "1"]}}, "strides": {"list": {"i": ["1", "1", "1", "1"]}}, "epsilon": {"f": 0.0}, "padding": {"s": "U0FNRQ=="}, "T": {"type": "DT_FLOAT"}, "fused_ops": {"list": {"s": ["Qmlhc0FkZA==", "UmVsdQ=="]}}, "explicit_paddings": {"list": {}}}}, {"name": "StatefulPartitionedCall/model_2/maxpool2d_0/MaxPool", "op": "MaxPool", "input": ["StatefulPartitionedCall/model_2/conv2d_0_activation/Relu"], "attr": {"padding": {"s": "U0FNRQ=="}, "T": {"type": "DT_FLOAT"}, "strides": {"list": {"i": ["1", "2", "2", "1"]}}, "data_format": {"s": "TkhXQw=="}, "ksize": {"list": {"i": ["1", "2", "2", "1"]}}}}, {"name": "StatefulPartitionedCall/model_2/conv2d_1_activation/Relu", "op": "_FusedConv2D", "input": ["StatefulPartitionedCall/model_2/maxpool2d_0/MaxPool", "StatefulPartitionedCall/model_2/conv2d_1/Conv2D_weights", "StatefulPartitionedCall/model_2/conv2d_1/Conv2D_bn_offset"], "device": "/device:CPU:0", "attr": {"T": {"type": "DT_FLOAT"}, "strides": {"list": {"i": ["1", "1", "1", "1"]}}, "epsilon": {"f": 0.0}, "num_args": {"i": "1"}, "explicit_paddings": {"list": {}}, "dilations": {"list": {"i": ["1", "1", "1", "1"]}}, "fused_ops": {"list": {"s": ["Qmlhc0FkZA==", "UmVsdQ=="]}}, "data_format": {"s": "TkhXQw=="}, "padding": {"s": "U0FNRQ=="}, "use_cudnn_on_gpu": {"b": true}}}, {"name": "StatefulPartitionedCall/model_2/maxpool2d_1/MaxPool", "op": "MaxPool", "input": ["StatefulPartitionedCall/model_2/conv2d_1_activation/Relu"], "attr": {"T": {"type": "DT_FLOAT"}, "padding": {"s": "U0FNRQ=="}, "ksize": {"list": {"i": ["1", "2", "2", "1"]}}, "strides": {"list": {"i": ["1", "2", "2", "1"]}}, "data_format": {"s": "TkhXQw=="}}}, {"name": "StatefulPartitionedCall/model_2/conv2d_2_activation/Relu", "op": "_FusedConv2D", "input": ["StatefulPartitionedCall/model_2/maxpool2d_1/MaxPool", "StatefulPartitionedCall/model_2/conv2d_2/Conv2D_weights", "StatefulPartitionedCall/model_2/conv2d_2/Conv2D_bn_offset"], "device": "/device:CPU:0", "attr": {"T": {"type": "DT_FLOAT"}, "epsilon": {"f": 0.0}, "strides": {"list": {"i": ["1", "1", "1", "1"]}}, "padding": {"s": "U0FNRQ=="}, "explicit_paddings": {"list": {}}, "fused_ops": {"list": {"s": ["Qmlhc0FkZA==", "UmVsdQ=="]}}, "use_cudnn_on_gpu": {"b": true}, "num_args": {"i": "1"}, "dilations": {"list": {"i": ["1", "1", "1", "1"]}}, "data_format": {"s": "TkhXQw=="}}}, {"name": "StatefulPartitionedCall/model_2/maxpool2d_2/MaxPool", "op": "MaxPool", "input": ["StatefulPartitionedCall/model_2/conv2d_2_activation/Relu"], "attr": {"data_format": {"s": "TkhXQw=="}, "padding": {"s": "U0FNRQ=="}, "strides": {"list": {"i": ["1", "2", "2", "1"]}}, "ksize": {"list": {"i": ["1", "2", "2", "1"]}}, "T": {"type": "DT_FLOAT"}}}, {"name": "StatefulPartitionedCall/model_2/conv2d_3_activation/Relu", "op": "_FusedConv2D", "input": ["StatefulPartitionedCall/model_2/maxpool2d_2/MaxPool", "StatefulPartitionedCall/model_2/conv2d_3/Conv2D_weights", "StatefulPartitionedCall/model_2/conv2d_3/Conv2D_bn_offset"], "device": "/device:CPU:0", "attr": {"T": {"type": "DT_FLOAT"}, "num_args": {"i": "1"}, "epsilon": {"f": 0.0}, "use_cudnn_on_gpu": {"b": true}, "strides": {"list": {"i": ["1", "1", "1", "1"]}}, "explicit_paddings": {"list": {}}, "padding": {"s": "U0FNRQ=="}, "data_format": {"s": "TkhXQw=="}, "dilations": {"list": {"i": ["1", "1", "1", "1"]}}, "fused_ops": {"list": {"s": ["Qmlhc0FkZA==", "UmVsdQ=="]}}}}, {"name": "StatefulPartitionedCall/model_2/maxpool2d_3/MaxPool", "op": "MaxPool", "input": ["StatefulPartitionedCall/model_2/conv2d_3_activation/Relu"], "attr": {"T": {"type": "DT_FLOAT"}, "data_format": {"s": "TkhXQw=="}, "ksize": {"list": {"i": ["1", "2", "2", "1"]}}, "strides": {"list": {"i": ["1", "2", "2", "1"]}}, "padding": {"s": "U0FNRQ=="}}}, {"name": "StatefulPartitionedCall/model_2/cls_0_insert_conv2d_activation/Relu", "op": "_FusedConv2D", "input": ["StatefulPartitionedCall/model_2/conv2d_3_activation/Relu", "StatefulPartitionedCall/model_2/cls_0_insert_conv2d/Conv2D_weights", "StatefulPartitionedCall/model_2/cls_0_insert_conv2d/Conv2D_bn_offset"], "device": "/device:CPU:0", "attr": {"explicit_paddings": {"list": {}}, "strides": {"list": {"i": ["1", "1", "1", "1"]}}, "data_format": {"s": "TkhXQw=="}, "fused_ops": {"list": {"s": ["Qmlhc0FkZA==", "UmVsdQ=="]}}, "epsilon": {"f": 0.0}, "padding": {"s": "U0FNRQ=="}, "use_cudnn_on_gpu": {"b": true}, "num_args": {"i": "1"}, "T": {"type": "DT_FLOAT"}, "dilations": {"list": {"i": ["1", "1", "1", "1"]}}}}, {"name": "StatefulPartitionedCall/model_2/loc_0_insert_conv2d_activation/Relu", "op": "_FusedConv2D", "input": ["StatefulPartitionedCall/model_2/conv2d_3_activation/Relu", "StatefulPartitionedCall/model_2/loc_0_insert_conv2d/Conv2D_weights", "StatefulPartitionedCall/model_2/loc_0_insert_conv2d/Conv2D_bn_offset"], "device": "/device:CPU:0", "attr": {"padding": {"s": "U0FNRQ=="}, "dilations": {"list": {"i": ["1", "1", "1", "1"]}}, "fused_ops": {"list": {"s": ["Qmlhc0FkZA==", "UmVsdQ=="]}}, "epsilon": {"f": 0.0}, "num_args": {"i": "1"}, "T": {"type": "DT_FLOAT"}, "use_cudnn_on_gpu": {"b": true}, "explicit_paddings": {"list": {}}, "strides": {"list": {"i": ["1", "1", "1", "1"]}}, "data_format": {"s": "TkhXQw=="}}}, {"name": "StatefulPartitionedCall/model_2/conv2d_4_activation/Relu", "op": "_FusedConv2D", "input": ["StatefulPartitionedCall/model_2/maxpool2d_3/MaxPool", "StatefulPartitionedCall/model_2/conv2d_4/Conv2D_weights", "StatefulPartitionedCall/model_2/conv2d_4/Conv2D_bn_offset"], "device": "/device:CPU:0", "attr": {"explicit_paddings": {"list": {}}, "padding": {"s": "U0FNRQ=="}, "fused_ops": {"list": {"s": ["Qmlhc0FkZA==", "UmVsdQ=="]}}, "epsilon": {"f": 0.0}, "num_args": {"i": "1"}, "use_cudnn_on_gpu": {"b": true}, "T": {"type": "DT_FLOAT"}, "data_format": {"s": "TkhXQw=="}, "dilations": {"list": {"i": ["1", "1", "1", "1"]}}, "strides": {"list": {"i": ["1", "1", "1", "1"]}}}}, {"name": "StatefulPartitionedCall/model_2/cls_0_conv/BiasAdd", "op": "_FusedConv2D", "input": ["StatefulPartitionedCall/model_2/cls_0_insert_conv2d_activation/Relu", "unknown_97", "unknown_98"], "device": "/device:CPU:0", "attr": {"data_format": {"s": "TkhXQw=="}, "T": {"type": "DT_FLOAT"}, "padding": {"s": "U0FNRQ=="}, "fused_ops": {"list": {"s": ["Qmlhc0FkZA=="]}}, "use_cudnn_on_gpu": {"b": true}, "strides": {"list": {"i": ["1", "1", "1", "1"]}}, "num_args": {"i": "1"}, "explicit_paddings": {"list": {}}, "epsilon": {"f": 0.0}, "dilations": {"list": {"i": ["1", "1", "1", "1"]}}}}, {"name": "StatefulPartitionedCall/model_2/loc_0_conv/BiasAdd", "op": "_FusedConv2D", "input": ["StatefulPartitionedCall/model_2/loc_0_insert_conv2d_activation/Relu", "unknown_107", "unknown_108"], "device": "/device:CPU:0", "attr": {"data_format": {"s": "TkhXQw=="}, "use_cudnn_on_gpu": {"b": true}, "dilations": {"list": {"i": ["1", "1", "1", "1"]}}, "num_args": {"i": "1"}, "fused_ops": {"list": {"s": ["Qmlhc0FkZA=="]}}, "epsilon": {"f": 0.0}, "padding": {"s": "U0FNRQ=="}, "T": {"type": "DT_FLOAT"}, "strides": {"list": {"i": ["1", "1", "1", "1"]}}, "explicit_paddings": {"list": {}}}}, {"name": "StatefulPartitionedCall/model_2/maxpool2d_4/MaxPool", "op": "MaxPool", "input": ["StatefulPartitionedCall/model_2/conv2d_4_activation/Relu"], "attr": {"T": {"type": "DT_FLOAT"}, "ksize": {"list": {"i": ["1", "2", "2", "1"]}}, "strides": {"list": {"i": ["1", "2", "2", "1"]}}, "data_format": {"s": "TkhXQw=="}, "padding": {"s": "U0FNRQ=="}}}, {"name": "StatefulPartitionedCall/model_2/cls_1_insert_conv2d_activation/Relu", "op": "_FusedConv2D", "input": ["StatefulPartitionedCall/model_2/conv2d_4_activation/Relu", "StatefulPartitionedCall/model_2/cls_1_insert_conv2d/Conv2D_weights", "StatefulPartitionedCall/model_2/cls_1_insert_conv2d/Conv2D_bn_offset"], "device": "/device:CPU:0", "attr": {"padding": {"s": "U0FNRQ=="}, "strides": {"list": {"i": ["1", "1", "1", "1"]}}, "explicit_paddings": {"list": {}}, "T": {"type": "DT_FLOAT"}, "dilations": {"list": {"i": ["1", "1", "1", "1"]}}, "fused_ops": {"list": {"s": ["Qmlhc0FkZA==", "UmVsdQ=="]}}, "data_format": {"s": "TkhXQw=="}, "use_cudnn_on_gpu": {"b": true}, "epsilon": {"f": 0.0}, "num_args": {"i": "1"}}}, {"name": "StatefulPartitionedCall/model_2/loc_1_insert_conv2d_activation/Relu", "op": "_FusedConv2D", "input": ["StatefulPartitionedCall/model_2/conv2d_4_activation/Relu", "StatefulPartitionedCall/model_2/loc_1_insert_conv2d/Conv2D_weights", "StatefulPartitionedCall/model_2/loc_1_insert_conv2d/Conv2D_bn_offset"], "device": "/device:CPU:0", "attr": {"epsilon": {"f": 0.0}, "fused_ops": {"list": {"s": ["Qmlhc0FkZA==", "UmVsdQ=="]}}, "padding": {"s": "U0FNRQ=="}, "data_format": {"s": "TkhXQw=="}, "strides": {"list": {"i": ["1", "1", "1", "1"]}}, "num_args": {"i": "1"}, "dilations": {"list": {"i": ["1", "1", "1", "1"]}}, "use_cudnn_on_gpu": {"b": true}, "T": {"type": "DT_FLOAT"}, "explicit_paddings": {"list": {}}}}, {"name": "StatefulPartitionedCall/model_2/cls_0_reshape/Shape", "op": "Shape", "input": ["StatefulPartitionedCall/model_2/cls_0_conv/BiasAdd"], "attr": {"T": {"type": "DT_FLOAT"}, "out_type": {"type": "DT_INT32"}}}, {"name": "StatefulPartitionedCall/model_2/loc_0_reshape/Shape", "op": "Shape", "input": ["StatefulPartitionedCall/model_2/loc_0_conv/BiasAdd"], "attr": {"T": {"type": "DT_FLOAT"}, "out_type": {"type": "DT_INT32"}}}, {"name": "StatefulPartitionedCall/model_2/conv2d_5_activation/Relu", "op": "_FusedConv2D", "input": ["StatefulPartitionedCall/model_2/maxpool2d_4/MaxPool", "StatefulPartitionedCall/model_2/conv2d_5/Conv2D_weights", "StatefulPartitionedCall/model_2/conv2d_5/Conv2D_bn_offset"], "device": "/device:CPU:0", "attr": {"data_format": {"s": "TkhXQw=="}, "strides": {"list": {"i": ["1", "1", "1", "1"]}}, "padding": {"s": "U0FNRQ=="}, "dilations": {"list": {"i": ["1", "1", "1", "1"]}}, "explicit_paddings": {"list": {}}, "num_args": {"i": "1"}, "fused_ops": {"list": {"s": ["Qmlhc0FkZA==", "UmVsdQ=="]}}, "use_cudnn_on_gpu": {"b": true}, "T": {"type": "DT_FLOAT"}, "epsilon": {"f": 0.0}}}, {"name": "StatefulPartitionedCall/model_2/cls_1_conv/BiasAdd", "op": "_FusedConv2D", "input": ["StatefulPartitionedCall/model_2/cls_1_insert_conv2d_activation/Relu", "unknown_95", "unknown_96"], "device": "/device:CPU:0", "attr": {"explicit_paddings": {"list": {}}, "dilations": {"list": {"i": ["1", "1", "1", "1"]}}, "data_format": {"s": "TkhXQw=="}, "use_cudnn_on_gpu": {"b": true}, "padding": {"s": "U0FNRQ=="}, "strides": {"list": {"i": ["1", "1", "1", "1"]}}, "T": {"type": "DT_FLOAT"}, "num_args": {"i": "1"}, "fused_ops": {"list": {"s": ["Qmlhc0FkZA=="]}}, "epsilon": {"f": 0.0}}}, {"name": "StatefulPartitionedCall/model_2/loc_1_conv/BiasAdd", "op": "_FusedConv2D", "input": ["StatefulPartitionedCall/model_2/loc_1_insert_conv2d_activation/Relu", "unknown_105", "unknown_106"], "device": "/device:CPU:0", "attr": {"T": {"type": "DT_FLOAT"}, "use_cudnn_on_gpu": {"b": true}, "fused_ops": {"list": {"s": ["Qmlhc0FkZA=="]}}, "explicit_paddings": {"list": {}}, "dilations": {"list": {"i": ["1", "1", "1", "1"]}}, "strides": {"list": {"i": ["1", "1", "1", "1"]}}, "padding": {"s": "U0FNRQ=="}, "data_format": {"s": "TkhXQw=="}, "num_args": {"i": "1"}, "epsilon": {"f": 0.0}}}, {"name": "StatefulPartitionedCall/model_2/cls_0_reshape/strided_slice", "op": "StridedSlice", "input": ["StatefulPartitionedCall/model_2/cls_0_reshape/Shape", "StatefulPartitionedCall/model_2/cls_0_reshape/strided_slice/stack", "StatefulPartitionedCall/model_2/cls_0_reshape/strided_slice/stack_1", "StatefulPartitionedCall/model_2/cls_0_reshape/strided_slice/stack_2"], "attr": {"ellipsis_mask": {"i": "0"}, "end_mask": {"i": "0"}, "begin_mask": {"i": "0"}, "new_axis_mask": {"i": "0"}, "T": {"type": "DT_INT32"}, "shrink_axis_mask": {"i": "1"}, "Index": {"type": "DT_INT32"}}}, {"name": "StatefulPartitionedCall/model_2/loc_0_reshape/strided_slice", "op": "StridedSlice", "input": ["StatefulPartitionedCall/model_2/loc_0_reshape/Shape", "StatefulPartitionedCall/model_2/loc_0_reshape/strided_slice/stack", "StatefulPartitionedCall/model_2/loc_0_reshape/strided_slice/stack_1", "StatefulPartitionedCall/model_2/loc_0_reshape/strided_slice/stack_2"], "attr": {"ellipsis_mask": {"i": "0"}, "T": {"type": "DT_INT32"}, "begin_mask": {"i": "0"}, "shrink_axis_mask": {"i": "1"}, "Index": {"type": "DT_INT32"}, "end_mask": {"i": "0"}, "new_axis_mask": {"i": "0"}}}, {"name": "StatefulPartitionedCall/model_2/maxpool2d_5/MaxPool", "op": "MaxPool", "input": ["StatefulPartitionedCall/model_2/conv2d_5_activation/Relu"], "attr": {"padding": {"s": "U0FNRQ=="}, "strides": {"list": {"i": ["1", "2", "2", "1"]}}, "ksize": {"list": {"i": ["1", "2", "2", "1"]}}, "data_format": {"s": "TkhXQw=="}, "T": {"type": "DT_FLOAT"}}}, {"name": "StatefulPartitionedCall/model_2/cls_2_insert_conv2d_activation/Relu", "op": "_FusedConv2D", "input": ["StatefulPartitionedCall/model_2/conv2d_5_activation/Relu", "StatefulPartitionedCall/model_2/cls_2_insert_conv2d/Conv2D_weights", "StatefulPartitionedCall/model_2/cls_2_insert_conv2d/Conv2D_bn_offset"], "device": "/device:CPU:0", "attr": {"padding": {"s": "U0FNRQ=="}, "data_format": {"s": "TkhXQw=="}, "strides": {"list": {"i": ["1", "1", "1", "1"]}}, "epsilon": {"f": 0.0}, "fused_ops": {"list": {"s": ["Qmlhc0FkZA==", "UmVsdQ=="]}}, "explicit_paddings": {"list": {}}, "use_cudnn_on_gpu": {"b": true}, "T": {"type": "DT_FLOAT"}, "dilations": {"list": {"i": ["1", "1", "1", "1"]}}, "num_args": {"i": "1"}}}, {"name": "StatefulPartitionedCall/model_2/loc_2_insert_conv2d_activation/Relu", "op": "_FusedConv2D", "input": ["StatefulPartitionedCall/model_2/conv2d_5_activation/Relu", "StatefulPartitionedCall/model_2/loc_2_insert_conv2d/Conv2D_weights", "StatefulPartitionedCall/model_2/loc_2_insert_conv2d/Conv2D_bn_offset"], "device": "/device:CPU:0", "attr": {"strides": {"list": {"i": ["1", "1", "1", "1"]}}, "epsilon": {"f": 0.0}, "data_format": {"s": "TkhXQw=="}, "use_cudnn_on_gpu": {"b": true}, "padding": {"s": "U0FNRQ=="}, "fused_ops": {"list": {"s": ["Qmlhc0FkZA==", "UmVsdQ=="]}}, "num_args": {"i": "1"}, "dilations": {"list": {"i": ["1", "1", "1", "1"]}}, "explicit_paddings": {"list": {}}, "T": {"type": "DT_FLOAT"}}}, {"name": "StatefulPartitionedCall/model_2/cls_1_reshape/Shape", "op": "Shape", "input": ["StatefulPartitionedCall/model_2/cls_1_conv/BiasAdd"], "attr": {"T": {"type": "DT_FLOAT"}, "out_type": {"type": "DT_INT32"}}}, {"name": "StatefulPartitionedCall/model_2/loc_1_reshape/Shape", "op": "Shape", "input": ["StatefulPartitionedCall/model_2/loc_1_conv/BiasAdd"], "attr": {"T": {"type": "DT_FLOAT"}, "out_type": {"type": "DT_INT32"}}}, {"name": "StatefulPartitionedCall/model_2/cls_0_reshape/Reshape/shape", "op": "Pack", "input": ["StatefulPartitionedCall/model_2/cls_0_reshape/strided_slice", "StatefulPartitionedCall/model_2/cls_0_reshape/Reshape/shape/1", "StatefulPartitionedCall/model_2/cls_0_reshape/Reshape/shape/2"], "attr": {"N": {"i": "3"}, "T": {"type": "DT_INT32"}, "axis": {"i": "0"}}}, {"name": "StatefulPartitionedCall/model_2/loc_0_reshape/Reshape/shape", "op": "Pack", "input": ["StatefulPartitionedCall/model_2/loc_0_reshape/strided_slice", "StatefulPartitionedCall/model_2/loc_0_reshape/Reshape/shape/1", "StatefulPartitionedCall/model_2/loc_0_reshape/Reshape/shape/2"], "attr": {"N": {"i": "3"}, "T": {"type": "DT_INT32"}, "axis": {"i": "0"}}}, {"name": "StatefulPartitionedCall/model_2/conv2d_6_activation/Relu", "op": "_FusedConv2D", "input": ["StatefulPartitionedCall/model_2/maxpool2d_5/MaxPool", "StatefulPartitionedCall/model_2/conv2d_6/Conv2D_weights", "StatefulPartitionedCall/model_2/conv2d_6/Conv2D_bn_offset"], "device": "/device:CPU:0", "attr": {"data_format": {"s": "TkhXQw=="}, "padding": {"s": "U0FNRQ=="}, "explicit_paddings": {"list": {}}, "num_args": {"i": "1"}, "epsilon": {"f": 0.0}, "T": {"type": "DT_FLOAT"}, "fused_ops": {"list": {"s": ["Qmlhc0FkZA==", "UmVsdQ=="]}}, "dilations": {"list": {"i": ["1", "1", "1", "1"]}}, "strides": {"list": {"i": ["1", "1", "1", "1"]}}, "use_cudnn_on_gpu": {"b": true}}}, {"name": "StatefulPartitionedCall/model_2/cls_2_conv/BiasAdd", "op": "_FusedConv2D", "input": ["StatefulPartitionedCall/model_2/cls_2_insert_conv2d_activation/Relu", "unknown_93", "unknown_94"], "device": "/device:CPU:0", "attr": {"num_args": {"i": "1"}, "dilations": {"list": {"i": ["1", "1", "1", "1"]}}, "T": {"type": "DT_FLOAT"}, "explicit_paddings": {"list": {}}, "data_format": {"s": "TkhXQw=="}, "epsilon": {"f": 0.0}, "padding": {"s": "U0FNRQ=="}, "strides": {"list": {"i": ["1", "1", "1", "1"]}}, "fused_ops": {"list": {"s": ["Qmlhc0FkZA=="]}}, "use_cudnn_on_gpu": {"b": true}}}, {"name": "StatefulPartitionedCall/model_2/loc_2_conv/BiasAdd", "op": "_FusedConv2D", "input": ["StatefulPartitionedCall/model_2/loc_2_insert_conv2d_activation/Relu", "unknown_103", "unknown_104"], "device": "/device:CPU:0", "attr": {"epsilon": {"f": 0.0}, "padding": {"s": "U0FNRQ=="}, "dilations": {"list": {"i": ["1", "1", "1", "1"]}}, "use_cudnn_on_gpu": {"b": true}, "T": {"type": "DT_FLOAT"}, "data_format": {"s": "TkhXQw=="}, "fused_ops": {"list": {"s": ["Qmlhc0FkZA=="]}}, "explicit_paddings": {"list": {}}, "strides": {"list": {"i": ["1", "1", "1", "1"]}}, "num_args": {"i": "1"}}}, {"name": "StatefulPartitionedCall/model_2/cls_1_reshape/strided_slice", "op": "StridedSlice", "input": ["StatefulPartitionedCall/model_2/cls_1_reshape/Shape", "StatefulPartitionedCall/model_2/cls_1_reshape/strided_slice/stack", "StatefulPartitionedCall/model_2/cls_1_reshape/strided_slice/stack_1", "StatefulPartitionedCall/model_2/cls_1_reshape/strided_slice/stack_2"], "attr": {"ellipsis_mask": {"i": "0"}, "new_axis_mask": {"i": "0"}, "end_mask": {"i": "0"}, "shrink_axis_mask": {"i": "1"}, "begin_mask": {"i": "0"}, "Index": {"type": "DT_INT32"}, "T": {"type": "DT_INT32"}}}, {"name": "StatefulPartitionedCall/model_2/loc_1_reshape/strided_slice", "op": "StridedSlice", "input": ["StatefulPartitionedCall/model_2/loc_1_reshape/Shape", "StatefulPartitionedCall/model_2/loc_1_reshape/strided_slice/stack", "StatefulPartitionedCall/model_2/loc_1_reshape/strided_slice/stack_1", "StatefulPartitionedCall/model_2/loc_1_reshape/strided_slice/stack_2"], "attr": {"end_mask": {"i": "0"}, "begin_mask": {"i": "0"}, "shrink_axis_mask": {"i": "1"}, "new_axis_mask": {"i": "0"}, "Index": {"type": "DT_INT32"}, "ellipsis_mask": {"i": "0"}, "T": {"type": "DT_INT32"}}}, {"name": "StatefulPartitionedCall/model_2/cls_0_reshape/Reshape", "op": "Reshape", "input": ["StatefulPartitionedCall/model_2/cls_0_conv/BiasAdd", "StatefulPartitionedCall/model_2/cls_0_reshape/Reshape/shape"], "attr": {"Tshape": {"type": "DT_INT32"}, "T": {"type": "DT_FLOAT"}}}, {"name": "StatefulPartitionedCall/model_2/loc_0_reshape/Reshape", "op": "Reshape", "input": ["StatefulPartitionedCall/model_2/loc_0_conv/BiasAdd", "StatefulPartitionedCall/model_2/loc_0_reshape/Reshape/shape"], "attr": {"T": {"type": "DT_FLOAT"}, "Tshape": {"type": "DT_INT32"}}}, {"name": "StatefulPartitionedCall/model_2/loc_3_insert_conv2d_activation/Relu", "op": "_FusedConv2D", "input": ["StatefulPartitionedCall/model_2/conv2d_6_activation/Relu", "StatefulPartitionedCall/model_2/loc_3_insert_conv2d/Conv2D_weights", "StatefulPartitionedCall/model_2/loc_3_insert_conv2d/Conv2D_bn_offset"], "device": "/device:CPU:0", "attr": {"num_args": {"i": "1"}, "padding": {"s": "U0FNRQ=="}, "data_format": {"s": "TkhXQw=="}, "explicit_paddings": {"list": {}}, "strides": {"list": {"i": ["1", "1", "1", "1"]}}, "T": {"type": "DT_FLOAT"}, "use_cudnn_on_gpu": {"b": true}, "epsilon": {"f": 0.0}, "dilations": {"list": {"i": ["1", "1", "1", "1"]}}, "fused_ops": {"list": {"s": ["Qmlhc0FkZA==", "UmVsdQ=="]}}}}, {"name": "StatefulPartitionedCall/model_2/conv2d_7_activation/Relu", "op": "_FusedConv2D", "input": ["StatefulPartitionedCall/model_2/conv2d_6_activation/Relu", "StatefulPartitionedCall/model_2/conv2d_7/Conv2D_weights", "StatefulPartitionedCall/model_2/conv2d_7/Conv2D_bn_offset"], "device": "/device:CPU:0", "attr": {"data_format": {"s": "TkhXQw=="}, "padding": {"s": "VkFMSUQ="}, "use_cudnn_on_gpu": {"b": true}, "strides": {"list": {"i": ["1", "1", "1", "1"]}}, "num_args": {"i": "1"}, "T": {"type": "DT_FLOAT"}, "explicit_paddings": {"list": {}}, "epsilon": {"f": 0.0}, "dilations": {"list": {"i": ["1", "1", "1", "1"]}}, "fused_ops": {"list": {"s": ["Qmlhc0FkZA==", "UmVsdQ=="]}}}}, {"name": "StatefulPartitionedCall/model_2/cls_3_insert_conv2d_activation/Relu", "op": "_FusedConv2D", "input": ["StatefulPartitionedCall/model_2/conv2d_6_activation/Relu", "StatefulPartitionedCall/model_2/cls_3_insert_conv2d/Conv2D_weights", "StatefulPartitionedCall/model_2/cls_3_insert_conv2d/Conv2D_bn_offset"], "device": "/device:CPU:0", "attr": {"padding": {"s": "U0FNRQ=="}, "dilations": {"list": {"i": ["1", "1", "1", "1"]}}, "epsilon": {"f": 0.0}, "strides": {"list": {"i": ["1", "1", "1", "1"]}}, "explicit_paddings": {"list": {}}, "num_args": {"i": "1"}, "fused_ops": {"list": {"s": ["Qmlhc0FkZA==", "UmVsdQ=="]}}, "T": {"type": "DT_FLOAT"}, "use_cudnn_on_gpu": {"b": true}, "data_format": {"s": "TkhXQw=="}}}, {"name": "StatefulPartitionedCall/model_2/cls_2_reshape/Shape", "op": "Shape", "input": ["StatefulPartitionedCall/model_2/cls_2_conv/BiasAdd"], "attr": {"T": {"type": "DT_FLOAT"}, "out_type": {"type": "DT_INT32"}}}, {"name": "StatefulPartitionedCall/model_2/loc_2_reshape/Shape", "op": "Shape", "input": ["StatefulPartitionedCall/model_2/loc_2_conv/BiasAdd"], "attr": {"out_type": {"type": "DT_INT32"}, "T": {"type": "DT_FLOAT"}}}, {"name": "StatefulPartitionedCall/model_2/cls_1_reshape/Reshape/shape", "op": "Pack", "input": ["StatefulPartitionedCall/model_2/cls_1_reshape/strided_slice", "StatefulPartitionedCall/model_2/cls_1_reshape/Reshape/shape/1", "StatefulPartitionedCall/model_2/cls_1_reshape/Reshape/shape/2"], "attr": {"T": {"type": "DT_INT32"}, "axis": {"i": "0"}, "N": {"i": "3"}}}, {"name": "StatefulPartitionedCall/model_2/loc_1_reshape/Reshape/shape", "op": "Pack", "input": ["StatefulPartitionedCall/model_2/loc_1_reshape/strided_slice", "StatefulPartitionedCall/model_2/loc_1_reshape/Reshape/shape/1", "StatefulPartitionedCall/model_2/loc_1_reshape/Reshape/shape/2"], "attr": {"T": {"type": "DT_INT32"}, "N": {"i": "3"}, "axis": {"i": "0"}}}, {"name": "StatefulPartitionedCall/model_2/loc_3_conv/BiasAdd", "op": "_FusedConv2D", "input": ["StatefulPartitionedCall/model_2/loc_3_insert_conv2d_activation/Relu", "unknown_101", "unknown_102"], "device": "/device:CPU:0", "attr": {"num_args": {"i": "1"}, "fused_ops": {"list": {"s": ["Qmlhc0FkZA=="]}}, "data_format": {"s": "TkhXQw=="}, "padding": {"s": "U0FNRQ=="}, "dilations": {"list": {"i": ["1", "1", "1", "1"]}}, "epsilon": {"f": 0.0}, "explicit_paddings": {"list": {}}, "T": {"type": "DT_FLOAT"}, "use_cudnn_on_gpu": {"b": true}, "strides": {"list": {"i": ["1", "1", "1", "1"]}}}}, {"name": "StatefulPartitionedCall/model_2/cls_4_insert_conv2d_activation/Relu", "op": "_FusedConv2D", "input": ["StatefulPartitionedCall/model_2/conv2d_7_activation/Relu", "StatefulPartitionedCall/model_2/cls_4_insert_conv2d/Conv2D_weights", "StatefulPartitionedCall/model_2/cls_4_insert_conv2d/Conv2D_bn_offset"], "device": "/device:CPU:0", "attr": {"fused_ops": {"list": {"s": ["Qmlhc0FkZA==", "UmVsdQ=="]}}, "padding": {"s": "U0FNRQ=="}, "use_cudnn_on_gpu": {"b": true}, "data_format": {"s": "TkhXQw=="}, "dilations": {"list": {"i": ["1", "1", "1", "1"]}}, "T": {"type": "DT_FLOAT"}, "epsilon": {"f": 0.0}, "strides": {"list": {"i": ["1", "1", "1", "1"]}}, "explicit_paddings": {"list": {}}, "num_args": {"i": "1"}}}, {"name": "StatefulPartitionedCall/model_2/loc_4_insert_conv2d_activation/Relu", "op": "_FusedConv2D", "input": ["StatefulPartitionedCall/model_2/conv2d_7_activation/Relu", "StatefulPartitionedCall/model_2/loc_4_insert_conv2d/Conv2D_weights", "StatefulPartitionedCall/model_2/loc_4_insert_conv2d/Conv2D_bn_offset"], "device": "/device:CPU:0", "attr": {"T": {"type": "DT_FLOAT"}, "data_format": {"s": "TkhXQw=="}, "epsilon": {"f": 0.0}, "dilations": {"list": {"i": ["1", "1", "1", "1"]}}, "strides": {"list": {"i": ["1", "1", "1", "1"]}}, "fused_ops": {"list": {"s": ["Qmlhc0FkZA==", "UmVsdQ=="]}}, "padding": {"s": "U0FNRQ=="}, "explicit_paddings": {"list": {}}, "num_args": {"i": "1"}, "use_cudnn_on_gpu": {"b": true}}}, {"name": "StatefulPartitionedCall/model_2/cls_3_conv/BiasAdd", "op": "_FusedConv2D", "input": ["StatefulPartitionedCall/model_2/cls_3_insert_conv2d_activation/Relu", "unknown_91", "unknown_92"], "device": "/device:CPU:0", "attr": {"dilations": {"list": {"i": ["1", "1", "1", "1"]}}, "T": {"type": "DT_FLOAT"}, "fused_ops": {"list": {"s": ["Qmlhc0FkZA=="]}}, "epsilon": {"f": 0.0}, "data_format": {"s": "TkhXQw=="}, "explicit_paddings": {"list": {}}, "padding": {"s": "U0FNRQ=="}, "num_args": {"i": "1"}, "strides": {"list": {"i": ["1", "1", "1", "1"]}}, "use_cudnn_on_gpu": {"b": true}}}, {"name": "StatefulPartitionedCall/model_2/cls_2_reshape/strided_slice", "op": "StridedSlice", "input": ["StatefulPartitionedCall/model_2/cls_2_reshape/Shape", "StatefulPartitionedCall/model_2/cls_2_reshape/strided_slice/stack", "StatefulPartitionedCall/model_2/cls_2_reshape/strided_slice/stack_1", "StatefulPartitionedCall/model_2/cls_2_reshape/strided_slice/stack_2"], "attr": {"new_axis_mask": {"i": "0"}, "ellipsis_mask": {"i": "0"}, "end_mask": {"i": "0"}, "Index": {"type": "DT_INT32"}, "shrink_axis_mask": {"i": "1"}, "begin_mask": {"i": "0"}, "T": {"type": "DT_INT32"}}}, {"name": "StatefulPartitionedCall/model_2/loc_2_reshape/strided_slice", "op": "StridedSlice", "input": ["StatefulPartitionedCall/model_2/loc_2_reshape/Shape", "StatefulPartitionedCall/model_2/loc_2_reshape/strided_slice/stack", "StatefulPartitionedCall/model_2/loc_2_reshape/strided_slice/stack_1", "StatefulPartitionedCall/model_2/loc_2_reshape/strided_slice/stack_2"], "attr": {"Index": {"type": "DT_INT32"}, "shrink_axis_mask": {"i": "1"}, "ellipsis_mask": {"i": "0"}, "begin_mask": {"i": "0"}, "T": {"type": "DT_INT32"}, "new_axis_mask": {"i": "0"}, "end_mask": {"i": "0"}}}, {"name": "StatefulPartitionedCall/model_2/cls_1_reshape/Reshape", "op": "Reshape", "input": ["StatefulPartitionedCall/model_2/cls_1_conv/BiasAdd", "StatefulPartitionedCall/model_2/cls_1_reshape/Reshape/shape"], "attr": {"Tshape": {"type": "DT_INT32"}, "T": {"type": "DT_FLOAT"}}}, {"name": "StatefulPartitionedCall/model_2/loc_1_reshape/Reshape", "op": "Reshape", "input": ["StatefulPartitionedCall/model_2/loc_1_conv/BiasAdd", "StatefulPartitionedCall/model_2/loc_1_reshape/Reshape/shape"], "attr": {"T": {"type": "DT_FLOAT"}, "Tshape": {"type": "DT_INT32"}}}, {"name": "StatefulPartitionedCall/model_2/loc_3_reshape/Shape", "op": "Shape", "input": ["StatefulPartitionedCall/model_2/loc_3_conv/BiasAdd"], "attr": {"out_type": {"type": "DT_INT32"}, "T": {"type": "DT_FLOAT"}}}, {"name": "StatefulPartitionedCall/model_2/cls_4_conv/BiasAdd", "op": "_FusedConv2D", "input": ["StatefulPartitionedCall/model_2/cls_4_insert_conv2d_activation/Relu", "unknown_89", "unknown_90"], "device": "/device:CPU:0", "attr": {"fused_ops": {"list": {"s": ["Qmlhc0FkZA=="]}}, "explicit_paddings": {"list": {}}, "data_format": {"s": "TkhXQw=="}, "use_cudnn_on_gpu": {"b": true}, "dilations": {"list": {"i": ["1", "1", "1", "1"]}}, "T": {"type": "DT_FLOAT"}, "strides": {"list": {"i": ["1", "1", "1", "1"]}}, "padding": {"s": "U0FNRQ=="}, "epsilon": {"f": 0.0}, "num_args": {"i": "1"}}}, {"name": "StatefulPartitionedCall/model_2/loc_4_conv/BiasAdd", "op": "_FusedConv2D", "input": ["StatefulPartitionedCall/model_2/loc_4_insert_conv2d_activation/Relu", "unknown_99", "unknown_100"], "device": "/device:CPU:0", "attr": {"T": {"type": "DT_FLOAT"}, "explicit_paddings": {"list": {}}, "num_args": {"i": "1"}, "data_format": {"s": "TkhXQw=="}, "dilations": {"list": {"i": ["1", "1", "1", "1"]}}, "epsilon": {"f": 0.0}, "padding": {"s": "U0FNRQ=="}, "fused_ops": {"list": {"s": ["Qmlhc0FkZA=="]}}, "strides": {"list": {"i": ["1", "1", "1", "1"]}}, "use_cudnn_on_gpu": {"b": true}}}, {"name": "StatefulPartitionedCall/model_2/cls_3_reshape/Shape", "op": "Shape", "input": ["StatefulPartitionedCall/model_2/cls_3_conv/BiasAdd"], "attr": {"T": {"type": "DT_FLOAT"}, "out_type": {"type": "DT_INT32"}}}, {"name": "StatefulPartitionedCall/model_2/cls_2_reshape/Reshape/shape", "op": "Pack", "input": ["StatefulPartitionedCall/model_2/cls_2_reshape/strided_slice", "StatefulPartitionedCall/model_2/cls_2_reshape/Reshape/shape/1", "StatefulPartitionedCall/model_2/cls_2_reshape/Reshape/shape/2"], "attr": {"T": {"type": "DT_INT32"}, "axis": {"i": "0"}, "N": {"i": "3"}}}, {"name": "StatefulPartitionedCall/model_2/loc_2_reshape/Reshape/shape", "op": "Pack", "input": ["StatefulPartitionedCall/model_2/loc_2_reshape/strided_slice", "StatefulPartitionedCall/model_2/loc_2_reshape/Reshape/shape/1", "StatefulPartitionedCall/model_2/loc_2_reshape/Reshape/shape/2"], "attr": {"N": {"i": "3"}, "axis": {"i": "0"}, "T": {"type": "DT_INT32"}}}, {"name": "StatefulPartitionedCall/model_2/loc_3_reshape/strided_slice", "op": "StridedSlice", "input": ["StatefulPartitionedCall/model_2/loc_3_reshape/Shape", "StatefulPartitionedCall/model_2/loc_3_reshape/strided_slice/stack", "StatefulPartitionedCall/model_2/loc_3_reshape/strided_slice/stack_1", "StatefulPartitionedCall/model_2/loc_3_reshape/strided_slice/stack_2"], "attr": {"ellipsis_mask": {"i": "0"}, "begin_mask": {"i": "0"}, "Index": {"type": "DT_INT32"}, "shrink_axis_mask": {"i": "1"}, "end_mask": {"i": "0"}, "new_axis_mask": {"i": "0"}, "T": {"type": "DT_INT32"}}}, {"name": "StatefulPartitionedCall/model_2/cls_4_reshape/Shape", "op": "Shape", "input": ["StatefulPartitionedCall/model_2/cls_4_conv/BiasAdd"], "attr": {"T": {"type": "DT_FLOAT"}, "out_type": {"type": "DT_INT32"}}}, {"name": "StatefulPartitionedCall/model_2/loc_4_reshape/Shape", "op": "Shape", "input": ["StatefulPartitionedCall/model_2/loc_4_conv/BiasAdd"], "attr": {"out_type": {"type": "DT_INT32"}, "T": {"type": "DT_FLOAT"}}}, {"name": "StatefulPartitionedCall/model_2/cls_3_reshape/strided_slice", "op": "StridedSlice", "input": ["StatefulPartitionedCall/model_2/cls_3_reshape/Shape", "StatefulPartitionedCall/model_2/cls_3_reshape/strided_slice/stack", "StatefulPartitionedCall/model_2/cls_3_reshape/strided_slice/stack_1", "StatefulPartitionedCall/model_2/cls_3_reshape/strided_slice/stack_2"], "attr": {"T": {"type": "DT_INT32"}, "new_axis_mask": {"i": "0"}, "ellipsis_mask": {"i": "0"}, "end_mask": {"i": "0"}, "shrink_axis_mask": {"i": "1"}, "Index": {"type": "DT_INT32"}, "begin_mask": {"i": "0"}}}, {"name": "StatefulPartitionedCall/model_2/cls_2_reshape/Reshape", "op": "Reshape", "input": ["StatefulPartitionedCall/model_2/cls_2_conv/BiasAdd", "StatefulPartitionedCall/model_2/cls_2_reshape/Reshape/shape"], "attr": {"T": {"type": "DT_FLOAT"}, "Tshape": {"type": "DT_INT32"}}}, {"name": "StatefulPartitionedCall/model_2/loc_2_reshape/Reshape", "op": "Reshape", "input": ["StatefulPartitionedCall/model_2/loc_2_conv/BiasAdd", "StatefulPartitionedCall/model_2/loc_2_reshape/Reshape/shape"], "attr": {"Tshape": {"type": "DT_INT32"}, "T": {"type": "DT_FLOAT"}}}, {"name": "StatefulPartitionedCall/model_2/loc_3_reshape/Reshape/shape", "op": "Pack", "input": ["StatefulPartitionedCall/model_2/loc_3_reshape/strided_slice", "StatefulPartitionedCall/model_2/loc_3_reshape/Reshape/shape/1", "StatefulPartitionedCall/model_2/loc_3_reshape/Reshape/shape/2"], "attr": {"T": {"type": "DT_INT32"}, "N": {"i": "3"}, "axis": {"i": "0"}}}, {"name": "StatefulPartitionedCall/model_2/cls_4_reshape/strided_slice", "op": "StridedSlice", "input": ["StatefulPartitionedCall/model_2/cls_4_reshape/Shape", "StatefulPartitionedCall/model_2/cls_4_reshape/strided_slice/stack", "StatefulPartitionedCall/model_2/cls_4_reshape/strided_slice/stack_1", "StatefulPartitionedCall/model_2/cls_4_reshape/strided_slice/stack_2"], "attr": {"end_mask": {"i": "0"}, "ellipsis_mask": {"i": "0"}, "new_axis_mask": {"i": "0"}, "Index": {"type": "DT_INT32"}, "begin_mask": {"i": "0"}, "shrink_axis_mask": {"i": "1"}, "T": {"type": "DT_INT32"}}}, {"name": "StatefulPartitionedCall/model_2/loc_4_reshape/strided_slice", "op": "StridedSlice", "input": ["StatefulPartitionedCall/model_2/loc_4_reshape/Shape", "StatefulPartitionedCall/model_2/loc_4_reshape/strided_slice/stack", "StatefulPartitionedCall/model_2/loc_4_reshape/strided_slice/stack_1", "StatefulPartitionedCall/model_2/loc_4_reshape/strided_slice/stack_2"], "attr": {"end_mask": {"i": "0"}, "T": {"type": "DT_INT32"}, "Index": {"type": "DT_INT32"}, "shrink_axis_mask": {"i": "1"}, "begin_mask": {"i": "0"}, "ellipsis_mask": {"i": "0"}, "new_axis_mask": {"i": "0"}}}, {"name": "StatefulPartitionedCall/model_2/cls_3_reshape/Reshape/shape", "op": "Pack", "input": ["StatefulPartitionedCall/model_2/cls_3_reshape/strided_slice", "StatefulPartitionedCall/model_2/cls_3_reshape/Reshape/shape/1", "StatefulPartitionedCall/model_2/cls_3_reshape/Reshape/shape/2"], "attr": {"N": {"i": "3"}, "axis": {"i": "0"}, "T": {"type": "DT_INT32"}}}, {"name": "StatefulPartitionedCall/model_2/loc_3_reshape/Reshape", "op": "Reshape", "input": ["StatefulPartitionedCall/model_2/loc_3_conv/BiasAdd", "StatefulPartitionedCall/model_2/loc_3_reshape/Reshape/shape"], "attr": {"Tshape": {"type": "DT_INT32"}, "T": {"type": "DT_FLOAT"}}}, {"name": "StatefulPartitionedCall/model_2/cls_4_reshape/Reshape/shape", "op": "Pack", "input": ["StatefulPartitionedCall/model_2/cls_4_reshape/strided_slice", "StatefulPartitionedCall/model_2/cls_4_reshape/Reshape/shape/1", "StatefulPartitionedCall/model_2/cls_4_reshape/Reshape/shape/2"], "attr": {"axis": {"i": "0"}, "N": {"i": "3"}, "T": {"type": "DT_INT32"}}}, {"name": "StatefulPartitionedCall/model_2/loc_4_reshape/Reshape/shape", "op": "Pack", "input": ["StatefulPartitionedCall/model_2/loc_4_reshape/strided_slice", "StatefulPartitionedCall/model_2/loc_4_reshape/Reshape/shape/1", "StatefulPartitionedCall/model_2/loc_4_reshape/Reshape/shape/2"], "attr": {"axis": {"i": "0"}, "N": {"i": "3"}, "T": {"type": "DT_INT32"}}}, {"name": "StatefulPartitionedCall/model_2/cls_3_reshape/Reshape", "op": "Reshape", "input": ["StatefulPartitionedCall/model_2/cls_3_conv/BiasAdd", "StatefulPartitionedCall/model_2/cls_3_reshape/Reshape/shape"], "attr": {"Tshape": {"type": "DT_INT32"}, "T": {"type": "DT_FLOAT"}}}, {"name": "StatefulPartitionedCall/model_2/cls_4_reshape/Reshape", "op": "Reshape", "input": ["StatefulPartitionedCall/model_2/cls_4_conv/BiasAdd", "StatefulPartitionedCall/model_2/cls_4_reshape/Reshape/shape"], "attr": {"T": {"type": "DT_FLOAT"}, "Tshape": {"type": "DT_INT32"}}}, {"name": "StatefulPartitionedCall/model_2/loc_4_reshape/Reshape", "op": "Reshape", "input": ["StatefulPartitionedCall/model_2/loc_4_conv/BiasAdd", "StatefulPartitionedCall/model_2/loc_4_reshape/Reshape/shape"], "attr": {"Tshape": {"type": "DT_INT32"}, "T": {"type": "DT_FLOAT"}}}, {"name": "StatefulPartitionedCall/model_2/cls_branch_concat/concat", "op": "ConcatV2", "input": ["StatefulPartitionedCall/model_2/cls_0_reshape/Reshape", "StatefulPartitionedCall/model_2/cls_1_reshape/Reshape", "StatefulPartitionedCall/model_2/cls_2_reshape/Reshape", "StatefulPartitionedCall/model_2/cls_3_reshape/Reshape", "StatefulPartitionedCall/model_2/cls_4_reshape/Reshape", "StatefulPartitionedCall/model_2/cls_branch_concat/concat/axis"], "attr": {"T": {"type": "DT_FLOAT"}, "Tidx": {"type": "DT_INT32"}, "N": {"i": "5"}}}, {"name": "StatefulPartitionedCall/model_2/loc_branch_concat/concat", "op": "ConcatV2", "input": ["StatefulPartitionedCall/model_2/loc_0_reshape/Reshape", "StatefulPartitionedCall/model_2/loc_1_reshape/Reshape", "StatefulPartitionedCall/model_2/loc_2_reshape/Reshape", "StatefulPartitionedCall/model_2/loc_3_reshape/Reshape", "StatefulPartitionedCall/model_2/loc_4_reshape/Reshape", "StatefulPartitionedCall/model_2/loc_branch_concat/concat/axis"], "attr": {"T": {"type": "DT_FLOAT"}, "N": {"i": "5"}, "Tidx": {"type": "DT_INT32"}}}, {"name": "StatefulPartitionedCall/model_2/cls_0_activation/Sigmoid", "op": "Sigmoid", "input": ["StatefulPartitionedCall/model_2/cls_branch_concat/concat"], "attr": {"T": {"type": "DT_FLOAT"}}}, {"name": "Identity_1", "op": "Identity", "input": ["StatefulPartitionedCall/model_2/loc_branch_concat/concat"], "attr": {"T": {"type": "DT_FLOAT"}}}, {"name": "Identity", "op": "Identity", "input": ["StatefulPartitionedCall/model_2/cls_0_activation/Sigmoid"], "attr": {"T": {"type": "DT_FLOAT"}}}], "library": {}, "versions": {"producer": 440}}, "weightsManifest": [{"paths": ["group1-shard1of1.bin"], "weights": [{"name": "unknown_97", "shape": [3, 3, 64, 8], "dtype": "float32", "quantization": {"dtype": "uint16", "min": -1.571816002604999, "scale": 4.469703698472954e-05, "original_dtype": "float32"}}, {"name": "unknown_98", "shape": [8], "dtype": "float32", "quantization": {"dtype": "uint16", "min": -2.0405404567718506, "scale": 9.452651819793895e-06, "original_dtype": "float32"}}, {"name": "StatefulPartitionedCall/model_2/cls_0_reshape/strided_slice/stack", "shape": [1], "dtype": "int32"}, {"name": "StatefulPartitionedCall/model_2/cls_0_reshape/strided_slice/stack_1", "shape": [1], "dtype": "int32"}, {"name": "StatefulPartitionedCall/model_2/cls_0_reshape/strided_slice/stack_2", "shape": [1], "dtype": "int32"}, {"name": "StatefulPartitionedCall/model_2/cls_0_reshape/Reshape/shape/1", "shape": [], "dtype": "int32"}, {"name": "StatefulPartitionedCall/model_2/cls_0_reshape/Reshape/shape/2", "shape": [], "dtype": "int32"}, {"name": "unknown_95", "shape": [3, 3, 64, 8], "dtype": "float32", "quantization": {"dtype": "uint16", "min": -2.3183761750968723, "scale": 6.0604804075309046e-05, "original_dtype": "float32"}}, {"name": "unknown_96", "shape": [8], "dtype": "float32", "quantization": {"dtype": "uint16", "min": -1.671607255935669, "scale": 1.0696111031361518e-05, "original_dtype": "float32"}}, {"name": "StatefulPartitionedCall/model_2/cls_1_reshape/strided_slice/stack", "shape": [1], "dtype": "int32"}, {"name": "StatefulPartitionedCall/model_2/cls_1_reshape/strided_slice/stack_1", "shape": [1], "dtype": "int32"}, {"name": "StatefulPartitionedCall/model_2/cls_1_reshape/strided_slice/stack_2", "shape": [1], "dtype": "int32"}, {"name": "StatefulPartitionedCall/model_2/cls_1_reshape/Reshape/shape/1", "shape": [], "dtype": "int32"}, {"name": "StatefulPartitionedCall/model_2/cls_1_reshape/Reshape/shape/2", "shape": [], "dtype": "int32"}, {"name": "unknown_93", "shape": [3, 3, 64, 8], "dtype": "float32", "quantization": {"dtype": "uint16", "min": -2.212671200981891, "scale": 5.205182904754031e-05, "original_dtype": "float32"}}, {"name": "unknown_94", "shape": [8], "dtype": "float32", "quantization": {"dtype": "uint16", "min": -1.3943434953689575, "scale": 1.3139089275990798e-05, "original_dtype": "float32"}}, {"name": "StatefulPartitionedCall/model_2/cls_2_reshape/strided_slice/stack", "shape": [1], "dtype": "int32"}, {"name": "StatefulPartitionedCall/model_2/cls_2_reshape/strided_slice/stack_1", "shape": [1], "dtype": "int32"}, {"name": "StatefulPartitionedCall/model_2/cls_2_reshape/strided_slice/stack_2", "shape": [1], "dtype": "int32"}, {"name": "StatefulPartitionedCall/model_2/cls_2_reshape/Reshape/shape/1", "shape": [], "dtype": "int32"}, {"name": "StatefulPartitionedCall/model_2/cls_2_reshape/Reshape/shape/2", "shape": [], "dtype": "int32"}, {"name": "unknown_91", "shape": [3, 3, 64, 8], "dtype": "float32", "quantization": {"dtype": "uint16", "min": -2.9743640698402145, "scale": 6.768532836883794e-05, "original_dtype": "float32"}}, {"name": "unknown_92", "shape": [8], "dtype": "float32", "quantization": {"dtype": "uint16", "min": -1.2476459741592407, "scale": 1.1934115919976246e-05, "original_dtype": "float32"}}, {"name": "StatefulPartitionedCall/model_2/cls_3_reshape/strided_slice/stack", "shape": [1], "dtype": "int32"}, {"name": "StatefulPartitionedCall/model_2/cls_3_reshape/strided_slice/stack_1", "shape": [1], "dtype": "int32"}, {"name": "StatefulPartitionedCall/model_2/cls_3_reshape/strided_slice/stack_2", "shape": [1], "dtype": "int32"}, {"name": "StatefulPartitionedCall/model_2/cls_3_reshape/Reshape/shape/1", "shape": [], "dtype": "int32"}, {"name": "StatefulPartitionedCall/model_2/cls_3_reshape/Reshape/shape/2", "shape": [], "dtype": "int32"}, {"name": "unknown_89", "shape": [3, 3, 64, 8], "dtype": "float32", "quantization": {"dtype": "uint16", "min": -3.0159637827781185, "scale": 6.91782412271055e-05, "original_dtype": "float32"}}, {"name": "unknown_90", "shape": [8], "dtype": "float32", "quantization": {"dtype": "uint16", "min": -1.1944235563278198, "scale": 7.474416997782506e-06, "original_dtype": "float32"}}, {"name": "StatefulPartitionedCall/model_2/cls_4_reshape/strided_slice/stack", "shape": [1], "dtype": "int32"}, {"name": "StatefulPartitionedCall/model_2/cls_4_reshape/strided_slice/stack_1", "shape": [1], "dtype": "int32"}, {"name": "StatefulPartitionedCall/model_2/cls_4_reshape/strided_slice/stack_2", "shape": [1], "dtype": "int32"}, {"name": "StatefulPartitionedCall/model_2/cls_4_reshape/Reshape/shape/1", "shape": [], "dtype": "int32"}, {"name": "StatefulPartitionedCall/model_2/cls_4_reshape/Reshape/shape/2", "shape": [], "dtype": "int32"}, {"name": "StatefulPartitionedCall/model_2/cls_branch_concat/concat/axis", "shape": [], "dtype": "int32"}, {"name": "unknown_107", "shape": [3, 3, 64, 16], "dtype": "float32", "quantization": {"dtype": "uint16", "min": -2.8416487551321197, "scale": 8.152070558070227e-05, "original_dtype": "float32"}}, {"name": "unknown_108", "shape": [16], "dtype": "float32", "quantization": {"dtype": "uint16", "min": -1.2400591133660763, "scale": 3.733318621646424e-05, "original_dtype": "float32"}}, {"name": "StatefulPartitionedCall/model_2/loc_0_reshape/strided_slice/stack", "shape": [1], "dtype": "int32"}, {"name": "StatefulPartitionedCall/model_2/loc_0_reshape/strided_slice/stack_1", "shape": [1], "dtype": "int32"}, {"name": "StatefulPartitionedCall/model_2/loc_0_reshape/strided_slice/stack_2", "shape": [1], "dtype": "int32"}, {"name": "StatefulPartitionedCall/model_2/loc_0_reshape/Reshape/shape/1", "shape": [], "dtype": "int32"}, {"name": "StatefulPartitionedCall/model_2/loc_0_reshape/Reshape/shape/2", "shape": [], "dtype": "int32"}, {"name": "unknown_105", "shape": [3, 3, 64, 16], "dtype": "float32", "quantization": {"dtype": "uint16", "min": -2.695938793941849, "scale": 8.212565247941783e-05, "original_dtype": "float32"}}, {"name": "unknown_106", "shape": [16], "dtype": "float32", "quantization": {"dtype": "uint16", "min": -0.6758773863847645, "scale": 3.045864742608222e-05, "original_dtype": "float32"}}, {"name": "StatefulPartitionedCall/model_2/loc_1_reshape/strided_slice/stack", "shape": [1], "dtype": "int32"}, {"name": "StatefulPartitionedCall/model_2/loc_1_reshape/strided_slice/stack_1", "shape": [1], "dtype": "int32"}, {"name": "StatefulPartitionedCall/model_2/loc_1_reshape/strided_slice/stack_2", "shape": [1], "dtype": "int32"}, {"name": "StatefulPartitionedCall/model_2/loc_1_reshape/Reshape/shape/1", "shape": [], "dtype": "int32"}, {"name": "StatefulPartitionedCall/model_2/loc_1_reshape/Reshape/shape/2", "shape": [], "dtype": "int32"}, {"name": "unknown_103", "shape": [3, 3, 64, 16], "dtype": "float32", "quantization": {"dtype": "uint16", "min": -3.0515937342417816, "scale": 9.441812296540166e-05, "original_dtype": "float32"}}, {"name": "unknown_104", "shape": [16], "dtype": "float32", "quantization": {"dtype": "uint16", "min": -0.9915988446755386, "scale": 3.2025283230808984e-05, "original_dtype": "float32"}}, {"name": "StatefulPartitionedCall/model_2/loc_2_reshape/strided_slice/stack", "shape": [1], "dtype": "int32"}, {"name": "StatefulPartitionedCall/model_2/loc_2_reshape/strided_slice/stack_1", "shape": [1], "dtype": "int32"}, {"name": "StatefulPartitionedCall/model_2/loc_2_reshape/strided_slice/stack_2", "shape": [1], "dtype": "int32"}, {"name": "StatefulPartitionedCall/model_2/loc_2_reshape/Reshape/shape/1", "shape": [], "dtype": "int32"}, {"name": "StatefulPartitionedCall/model_2/loc_2_reshape/Reshape/shape/2", "shape": [], "dtype": "int32"}, {"name": "unknown_101", "shape": [3, 3, 64, 16], "dtype": "float32", "quantization": {"dtype": "uint16", "min": -3.5139056114107428, "scale": 9.349720914803882e-05, "original_dtype": "float32"}}, {"name": "unknown_102", "shape": [16], "dtype": "float32", "quantization": {"dtype": "uint16", "min": -1.1296940857116078, "scale": 3.378473849248184e-05, "original_dtype": "float32"}}, {"name": "StatefulPartitionedCall/model_2/loc_3_reshape/strided_slice/stack", "shape": [1], "dtype": "int32"}, {"name": "StatefulPartitionedCall/model_2/loc_3_reshape/strided_slice/stack_1", "shape": [1], "dtype": "int32"}, {"name": "StatefulPartitionedCall/model_2/loc_3_reshape/strided_slice/stack_2", "shape": [1], "dtype": "int32"}, {"name": "StatefulPartitionedCall/model_2/loc_3_reshape/Reshape/shape/1", "shape": [], "dtype": "int32"}, {"name": "StatefulPartitionedCall/model_2/loc_3_reshape/Reshape/shape/2", "shape": [], "dtype": "int32"}, {"name": "unknown_99", "shape": [3, 3, 64, 16], "dtype": "float32", "quantization": {"dtype": "uint16", "min": -2.6298912179127174, "scale": 7.785119498868351e-05, "original_dtype": "float32"}}, {"name": "unknown_100", "shape": [16], "dtype": "float32", "quantization": {"dtype": "uint16", "min": -1.7927926282865594, "scale": 3.4573854057286985e-05, "original_dtype": "float32"}}, {"name": "StatefulPartitionedCall/model_2/loc_4_reshape/strided_slice/stack", "shape": [1], "dtype": "int32"}, {"name": "StatefulPartitionedCall/model_2/loc_4_reshape/strided_slice/stack_1", "shape": [1], "dtype": "int32"}, {"name": "StatefulPartitionedCall/model_2/loc_4_reshape/strided_slice/stack_2", "shape": [1], "dtype": "int32"}, {"name": "StatefulPartitionedCall/model_2/loc_4_reshape/Reshape/shape/1", "shape": [], "dtype": "int32"}, {"name": "StatefulPartitionedCall/model_2/loc_4_reshape/Reshape/shape/2", "shape": [], "dtype": "int32"}, {"name": "StatefulPartitionedCall/model_2/loc_branch_concat/concat/axis", "shape": [], "dtype": "int32"}, {"name": "StatefulPartitionedCall/model_2/conv2d_0/Conv2D_weights", "shape": [3, 3, 3, 32], "dtype": "float32", "quantization": {"dtype": "uint16", "min": -10.306759608323963, "scale": 0.00030776552325611286, "original_dtype": "float32"}}, {"name": "StatefulPartitionedCall/model_2/conv2d_0/Conv2D_bn_offset", "shape": [32], "dtype": "float32", "quantization": {"dtype": "uint16", "min": -2.274178737690731, "scale": 0.00010095794804629012, "original_dtype": "float32"}}, {"name": "StatefulPartitionedCall/model_2/conv2d_1/Conv2D_weights", "shape": [3, 3, 32, 64], "dtype": "float32", "quantization": {"dtype": "uint16", "min": -0.5099068819671617, "scale": 1.3687305577043048e-05, "original_dtype": "float32"}}, {"name": "StatefulPartitionedCall/model_2/conv2d_1/Conv2D_bn_offset", "shape": [64], "dtype": "float32", "quantization": {"dtype": "uint16", "min": -3.79897002059862, "scale": 0.00010410989368590353, "original_dtype": "float32"}}, {"name": "StatefulPartitionedCall/model_2/loc_3_insert_conv2d/Conv2D_weights", "shape": [3, 3, 64, 64], "dtype": "float32", "quantization": {"dtype": "uint16", "min": -0.10678196983387607, "scale": 2.5718200827041443e-06, "original_dtype": "float32"}}, {"name": "StatefulPartitionedCall/model_2/conv2d_2/Conv2D_weights", "shape": [3, 3, 64, 64], "dtype": "float32", "quantization": {"dtype": "uint16", "min": -0.5120096942593907, "scale": 1.5263368438199156e-05, "original_dtype": "float32"}}, {"name": "StatefulPartitionedCall/model_2/loc_4_insert_conv2d/Conv2D_bn_offset", "shape": [64], "dtype": "float32", "quantization": {"dtype": "uint16", "min": -0.6864558361520153, "scale": 1.7163112215021886e-05, "original_dtype": "float32"}}, {"name": "StatefulPartitionedCall/model_2/conv2d_2/Conv2D_bn_offset", "shape": [64], "dtype": "float32", "quantization": {"dtype": "uint16", "min": -2.577508695048999, "scale": 6.62513480285053e-05, "original_dtype": "float32"}}, {"name": "StatefulPartitionedCall/model_2/loc_3_insert_conv2d/Conv2D_bn_offset", "shape": [64], "dtype": "float32", "quantization": {"dtype": "uint16", "min": -0.7267359422529608, "scale": 1.739476632406139e-05, "original_dtype": "float32"}}, {"name": "StatefulPartitionedCall/model_2/conv2d_3/Conv2D_weights", "shape": [3, 3, 64, 64], "dtype": "float32", "quantization": {"dtype": "uint16", "min": -0.3392986223500663, "scale": 1.535010054062913e-05, "original_dtype": "float32"}}, {"name": "StatefulPartitionedCall/model_2/conv2d_3/Conv2D_bn_offset", "shape": [64], "dtype": "float32", "quantization": {"dtype": "uint16", "min": -5.170142773649845, "scale": 0.00012120552263807776, "original_dtype": "float32"}}, {"name": "StatefulPartitionedCall/model_2/cls_0_insert_conv2d/Conv2D_weights", "shape": [3, 3, 64, 64], "dtype": "float32", "quantization": {"dtype": "uint16", "min": -0.17844166034072162, "scale": 6.748928152069653e-06, "original_dtype": "float32"}}, {"name": "StatefulPartitionedCall/model_2/cls_0_insert_conv2d/Conv2D_bn_offset", "shape": [64], "dtype": "float32", "quantization": {"dtype": "uint16", "min": -1.7646159453332728, "scale": 3.546467723804234e-05, "original_dtype": "float32"}}, {"name": "StatefulPartitionedCall/model_2/loc_0_insert_conv2d/Conv2D_weights", "shape": [3, 3, 64, 64], "dtype": "float32", "quantization": {"dtype": "uint16", "min": -0.11252511982842478, "scale": 3.5790432515402285e-06, "original_dtype": "float32"}}, {"name": "StatefulPartitionedCall/model_2/loc_0_insert_conv2d/Conv2D_bn_offset", "shape": [64], "dtype": "float32", "quantization": {"dtype": "uint16", "min": -1.259120421646261, "scale": 2.7115762283757103e-05, "original_dtype": "float32"}}, {"name": "StatefulPartitionedCall/model_2/conv2d_4/Conv2D_weights", "shape": [3, 3, 64, 128], "dtype": "float32", "quantization": {"dtype": "uint16", "min": -0.3568325268792062, "scale": 1.7017145637808487e-05, "original_dtype": "float32"}}, {"name": "StatefulPartitionedCall/model_2/conv2d_7/Conv2D_weights", "shape": [3, 3, 64, 64], "dtype": "float32", "quantization": {"dtype": "uint16", "min": -0.6098247158988495, "scale": 1.6627804114488058e-05, "original_dtype": "float32"}}, {"name": "StatefulPartitionedCall/model_2/conv2d_4/Conv2D_bn_offset", "shape": [128], "dtype": "float32", "quantization": {"dtype": "uint16", "min": -5.978188768767962, "scale": 0.00011406145098008016, "original_dtype": "float32"}}, {"name": "StatefulPartitionedCall/model_2/cls_1_insert_conv2d/Conv2D_weights", "shape": [3, 3, 128, 64], "dtype": "float32", "quantization": {"dtype": "uint16", "min": -0.2873974203281238, "scale": 7.470689376868308e-06, "original_dtype": "float32"}}, {"name": "StatefulPartitionedCall/model_2/conv2d_7/Conv2D_bn_offset", "shape": [64], "dtype": "float32", "quantization": {"dtype": "uint16", "min": -1.7413078991419264, "scale": 6.57370191076268e-05, "original_dtype": "float32"}}, {"name": "StatefulPartitionedCall/model_2/cls_1_insert_conv2d/Conv2D_bn_offset", "shape": [64], "dtype": "float32", "quantization": {"dtype": "uint16", "min": -1.2646909994710507, "scale": 2.89562001893729e-05, "original_dtype": "float32"}}, {"name": "StatefulPartitionedCall/model_2/loc_1_insert_conv2d/Conv2D_weights", "shape": [3, 3, 128, 64], "dtype": "float32", "quantization": {"dtype": "uint16", "min": -0.10172225847468547, "scale": 3.082212479916537e-06, "original_dtype": "float32"}}, {"name": "StatefulPartitionedCall/model_2/cls_4_insert_conv2d/Conv2D_weights", "shape": [3, 3, 64, 64], "dtype": "float32", "quantization": {"dtype": "uint16", "min": -0.21839489037506532, "scale": 5.926269683465356e-06, "original_dtype": "float32"}}, {"name": "StatefulPartitionedCall/model_2/loc_1_insert_conv2d/Conv2D_bn_offset", "shape": [64], "dtype": "float32", "quantization": {"dtype": "uint16", "min": -0.6796756847195616, "scale": 1.681533114100845e-05, "original_dtype": "float32"}}, {"name": "StatefulPartitionedCall/model_2/cls_4_insert_conv2d/Conv2D_bn_offset", "shape": [64], "dtype": "float32", "quantization": {"dtype": "uint16", "min": -1.2313438246304176, "scale": 2.900692166384965e-05, "original_dtype": "float32"}}, {"name": "StatefulPartitionedCall/model_2/conv2d_5/Conv2D_weights", "shape": [3, 3, 128, 128], "dtype": "float32", "quantization": {"dtype": "uint16", "min": -0.5085808325625124, "scale": 1.8093167048365735e-05, "original_dtype": "float32"}}, {"name": "StatefulPartitionedCall/model_2/conv2d_5/Conv2D_bn_offset", "shape": [128], "dtype": "float32", "quantization": {"dtype": "uint16", "min": -3.516988474238407, "scale": 7.720651711716917e-05, "original_dtype": "float32"}}, {"name": "StatefulPartitionedCall/model_2/cls_2_insert_conv2d/Conv2D_weights", "shape": [3, 3, 128, 64], "dtype": "float32", "quantization": {"dtype": "uint16", "min": -0.3336857210762615, "scale": 8.299607538272889e-06, "original_dtype": "float32"}}, {"name": "StatefulPartitionedCall/model_2/cls_2_insert_conv2d/Conv2D_bn_offset", "shape": [64], "dtype": "float32", "quantization": {"dtype": "uint16", "min": -1.0461143898356375, "scale": 2.55156074498314e-05, "original_dtype": "float32"}}, {"name": "StatefulPartitionedCall/model_2/loc_2_insert_conv2d/Conv2D_weights", "shape": [3, 3, 128, 64], "dtype": "float32", "quantization": {"dtype": "uint16", "min": -0.09581132254993797, "scale": 2.4350968980312603e-06, "original_dtype": "float32"}}, {"name": "StatefulPartitionedCall/model_2/loc_2_insert_conv2d/Conv2D_bn_offset", "shape": [64], "dtype": "float32", "quantization": {"dtype": "uint16", "min": -0.844634297402125, "scale": 2.1534707495847356e-05, "original_dtype": "float32"}}, {"name": "StatefulPartitionedCall/model_2/conv2d_6/Conv2D_weights", "shape": [3, 3, 128, 64], "dtype": "float32", "quantization": {"dtype": "uint16", "min": -0.5519903475745115, "scale": 1.4813760602611549e-05, "original_dtype": "float32"}}, {"name": "StatefulPartitionedCall/model_2/conv2d_6/Conv2D_bn_offset", "shape": [64], "dtype": "float32", "quantization": {"dtype": "uint16", "min": -2.1733375105148798, "scale": 6.525559256913016e-05, "original_dtype": "float32"}}, {"name": "StatefulPartitionedCall/model_2/cls_3_insert_conv2d/Conv2D_weights", "shape": [3, 3, 64, 64], "dtype": "float32", "quantization": {"dtype": "uint16", "min": -0.31429121062913296, "scale": 8.412055313664497e-06, "original_dtype": "float32"}}, {"name": "StatefulPartitionedCall/model_2/cls_3_insert_conv2d/Conv2D_bn_offset", "shape": [64], "dtype": "float32", "quantization": {"dtype": "uint16", "min": -1.000283425240092, "scale": 2.4603586807361574e-05, "original_dtype": "float32"}}, {"name": "StatefulPartitionedCall/model_2/loc_4_insert_conv2d/Conv2D_weights", "shape": [3, 3, 64, 64], "dtype": "float32", "quantization": {"dtype": "uint16", "min": -0.06777189513579598, "scale": 1.9739578579150086e-06, "original_dtype": "float32"}}]}]}